models/arduino_model/2layers.tflite (tflite, 6384 bytes, 4 tensors)

tfl.pseudo_qconst1 i1 [1, 8] scale=0.0061603696 zero_point=0
000000 f0 dc 7f 01 e3 e2 f6 db
       -0.098565914 -0.22177331 0.78236693 0.0061603696 -0.17865072 -0.18481109 -0.061603695 -0.22793368

tfl.pseudo_qconst3 i1 [8, 16]
000000 35 2e 48 b4 ed 06 85 12 de 0f 81 ee 02 01 cd c6
       53 46 72 -76 -19 6 -123 18 -34 15 -127 -18 2 1 -51 -58
000010 24 dc 4b 05 0f fc 12 d1 75 81 04 31 e8 75 cf d5
       36 -36 75 5 15 -4 18 -47 117 -127 4 49 -24 117 -49 -43
000020 41 0e 26 b2 42 b1 7f 7b 9c 2c 74 33 b7 35 30 1b
       65 14 38 -78 66 -79 127 123 -100 44 116 51 -73 53 48 27
000030 ac be 04 e6 99 45 a6 1a 40 17 4e 81 a4 88 3e 3f
       -84 -66 4 -26 -103 69 -90 26 64 23 78 -127 -92 -120 62 63
000040 6b 62 1e d6 d9 3d e3 53 81 e5 1c 27 e1 64 56 6b
       107 98 30 -42 -39 61 -29 83 -127 -27 28 39 -31 100 86 107
000050 c0 26 47 32 29 c6 1d 2c ad 9e 81 ef 2b d4 75 06
       -64 38 71 50 41 -58 29 44 -83 -98 -127 -17 43 -44 117 6
000060 5a 95 0e c6 ae c2 f7 25 3a 00 ed 3c ca e9 20 81
       90 -107 14 -58 -82 -62 -9 37 58 0 -19 60 -54 -23 32 -127
000070 5a 2b 86 b6 6a d9 8b fb a5 7f 76 9c 56 f5 fd e2
       90 43 -122 -74 106 -39 -117 -5 -91 127 118 -100 86 -11 -3 -30

tfl.pseudo_qconst5 i1 [16, 32]
000000 29 81 1d 30 9e 10 ae b8 02 bf ec a5 ca b1 00 34
       41 -127 29 48 -98 16 -82 -72 2 -65 -20 -91 -54 -79 0 52
000010 b6 b5 ac 56 9a c8 fe 28 0f c8 d6 d5 23 52 63 19
       -74 -75 -84 86 -102 -56 -2 40 15 -56 -42 -43 35 82 99 25
000020 e4 d9 03 fd 2c 3d 30 05 33 23 2f ee 1b c1 27 f2
       -28 -39 3 -3 44 61 48 5 51 35 47 -18 27 -63 39 -14
000030 e3 12 59 35 08 d0 28 1c 39 7f 06 dc f4 3a f0 20
       -29 18 89 53 8 -48 40 28 57 127 6 -36 -12 58 -16 32
000040 1b 31 f7 9e 73 e8 93 c6 0d f4 11 ce a9 f2 59 37
       27 49 -9 -98 115 -24 -109 -58 13 -12 17 -50 -87 -14 89 55
000050 62 bd 68 9d d5 4e 03 88 ef 33 18 7d 81 b2 d2 14
       98 -67 104 -99 -43 78 3 -120 -17 51 24 125 -127 -78 -46 20
000060 b3 07 47 0e f1 0f 49 a6 e5 cb aa 1f 81 22 0f e4
       -77 7 71 14 -15 15 73 -90 -27 -53 -86 31 -127 34 15 -28
000070 57 d0 2b f1 ab e1 41 55 34 1f 23 a5 c3 00 f1 cf
       87 -48 43 -15 -85 -31 65 85 52 31 35 -91 -61 0 -15 -49
000080 2b d6 49 ec f9 a0 5d 3c 38 16 32 28 0a f8 b1 7f
       43 -42 73 -20 -7 -96 93 60 56 22 50 40 10 -8 -79 127
000090 2f 24 8a a6 aa 12 c1 03 9e 94 90 f7 2d ed 02 5f
       47 36 -118 -90 -86 18 -63 3 -98 -108 -112 -9 45 -19 2 95
0000a0 d5 27 62 a8 50 03 30 5e 25 0f c4 8e 32 43 bc 5d
       -43 39 98 -88 80 3 48 94 37 15 -60 -114 50 67 -68 93
0000b0 c5 a6 02 ec 45 28 ba b7 ab 66 e2 fd 81 cc bf 2d
       -59 -90 2 -20 69 40 -70 -73 -85 102 -30 -3 -127 -52 -65 45
0000c0 eb 4b 00 ff b0 27 b4 ed 37 ee 18 05 25 0b 0e b7
       -21 75 0 -1 -80 39 -76 -19 55 -18 24 5 37 11 14 -73
0000d0 e3 20 e4 10 89 5a 42 0d 07 2b 25 d8 7f 11 26 20
       -29 32 -28 16 -119 90 66 13 7 43 37 -40 127 17 38 32
0000e0 a3 0d 1e 3b 3d ce a2 ec 49 1c 22 98 be 16 bd f7
       -93 13 30 59 61 -50 -94 -20 73 28 34 -104 -66 22 -67 -9
0000f0 27 a1 9b 02 f8 39 3c d2 92 4b 33 05 bc 81 db 93
       39 -95 -101 2 -8 57 60 -46 -110 75 51 5 -68 -127 -37 -109

tfl.pseudo_qconst7 i1 [32, 48]
000000 5c 08 8a f0 8a 82 75 29 0e 62 4a ee c0 e4 da 12
       92 8 -118 -16 -118 -126 117 41 14 98 74 -18 -64 -28 -38 18
000010 30 4d ff d7 a6 b9 15 59 b7 08 8a a9 5f a7 6a c4
       48 77 -1 -41 -90 -71 21 89 -73 8 -118 -87 95 -89 106 -60
000020 48 17 bc 8a cb 4c 3b a7 4d 81 f5 0d e5 b4 63 f5
       72 23 -68 -118 -53 76 59 -89 77 -127 -11 13 -27 -76 99 -11
000030 e1 08 14 f3 f9 0e 0b 0e 09 04 fd ee e6 fc eb 14
       -31 8 20 -13 -7 14 11 14 9 4 -3 -18 -26 -4 -21 20
000040 0b 17 ee 05 f0 ec fa ed 14 14 04 17 04 08 f8 ef
       11 23 -18 5 -16 -20 -6 -19 20 20 4 23 4 8 -8 -17
000050 14 1c 1a ed fb f0 0a f3 0f 13 18 0d f6 11 2a 7f
       20 28 26 -19 -5 -16 10 -13 15 19 24 13 -10 17 42 127
000060 eb 53 bc 5a bb 66 be 86 08 be ee 9c 66 51 d3 93
       -21 83 -68 90 -69 102 -66 -122 8 -66 -18 -100 102 81 -45 -109
000070 d8 34 d9 4d 39 4c 91 98 47 f1 25 2a 8b 52 3a 5d
       -40 52 -39 77 57 76 -111 -104 71 -15 37 42 -117 82 58 93
000080 27 18 8b 62 81 c8 00 3f 8a da 4d d9 03 8a 8a c4
       39 24 -117 98 -127 -56 0 63 -118 -38 77 -39 3 -118 -118 -60
000090 ec 11 cb 10 f3 2a fc fc 29 4a 3e 37 e3 d5 f6 14
       -20 17 -53 16 -13 42 -4 -4 41 74 62 55 -29 -43 -10 20
0000a0 23 1f 2d f3 1c ea d0 f9 1e cc f3 e4 cb 16 e4 ca
       35 31 45 -13 28 -22 -48 -7 30 -52 -13 -28 -53 22 -28 -54
0000b0 28 28 d2 06 12 c2 f0 c6 e8 a7 d5 ec d4 a7 24 7f
       40 40 -46 6 18 -62 -16 -58 -24 -89 -43 -20 -44 -89 36 127
0000c0 87 21 a3 66 95 56 02 0a aa 25 c7 0e 85 52 14 3d
       -121 33 -93 102 -107 86 2 10 -86 37 -57 14 -123 82 20 61
0000d0 9a c1 af 1f 4c a7 d3 a0 9f ea 31 26 aa 2d 82 9e
       -102 -63 -81 31 76 -89 -45 -96 -97 -22 49 38 -86 45 -126 -98
0000e0 6a 63 5e 81 9e 93 2f 4e 21 18 2f 0c 01 c8 d4 94
       106 99 94 -127 -98 -109 47 78 33 24 47 12 1 -56 -44 -108
0000f0 3a 1e ea ea ce cc 87 23 43 44 1d 3b b3 f5 eb 00
       58 30 -22 -22 -50 -52 -121 35 67 68 29 59 -77 -11 -21 0
