models/arduino_model/gru_light.tflite (tflite, 295168 bytes, 5 tensors)

tfl.pseudo_qconst1 i1 [1, 8] scale=0.0046803933 zero_point=0
00000000: 0201 732a af70 dc81
0.0093607865 0.0046803933 0.5382452 0.19657652 -0.37911186 0.524204 -0.16849416 -0.59440994

tfl.pseudo_qconst3 i1 [8, 4]
00000000: 3d32 327f 307f f224 707f 26d0 c97f 47c0
00000010: f854 1381 4643 7ff6 f881 0d67 2b7f c3d6
61 50 50 127 48 127 -14 36
112 127 38 -48 -55 127 71 -64
-8 84 19 -127 70 67 127 -10
-8 -127 13 103 43 127 -61 -42

tfl.pseudo_qconst53 i1 [12, 4]
00000000: 9863 81be 3c5c 3281 d581 043d c93f 81f5
00000010: fec5 7f25 7f21 15e1 59c8 7fc2 45e6 7fc4
00000020: 9e98 f77f b2eb 816c e008 6281 3e2b 3b81
-104 99 -127 -66 60 92 50 -127
-43 -127 4 61 -55 63 -127 -11
-2 -59 127 37 127 33 21 -31
89 -56 127 -62 69 -26 127 -60
-98 -104 -9 127 -78 -21 -127 108
-32 8 98 -127 62 43 59 -127

tfl.pseudo_qconst54 i1 [12, 4]
00000000: fb05 f9fd 070b 06f1 f2d7 0114 fc04 f7ff
00000010: 00ff 0301 0e04 02fd 0bf9 10f8 45e6 7fc4
00000020: cac6 fb46 ccf2 ab48 f204 2ac9 261a 24b3
-5 5 -7 -3 7 11 6 -15
-14 -41 1 20 -4 4 -9 -1
0 -1 3 1 14 4 2 -3
11 -7 16 -8 69 -26 127 -60
-54 -58 -5 70 -52 -14 -85 72
-14 4 42 -55 38 26 36 -77

tfl.pseudo_qconst103 i1 [12, 1]
00000000: 817f 8181 8181 7f81 7f7f 7f81
-127 127 -127 -127 -127 -127 127 -127
127 127 127 -127
