models/arduino_model/out.tflite (tflite, 27168 bytes, 9 tensors)

arith.constant12 f2 [8, 8]
0.1451 0.641 0.654 -0.05112 0.4382 0.11804 -0.2059 0.2544
0.43 0.002663 -0.3923 0.4578 -0.0692 -0.3708 -0.1924 0.5522
0.2988 0.4404 0.471 -0.08276 -0.3003 0.4077 0.514 0.1294
-0.3167 -0.5864 0.4229 0.3428 -0.2383 -0.2155 0.4663 -0.3901
-0.2737 0.1721 -0.0378 -0.1124 0.1459 0.10535 0.4539 -0.3728
-0.321 -0.598 0.01019 -0.4692 0.2856 0.54 0.4678 0.5615
0.0901 0.5493 -0.2167 0.4792 0.225 -0.305 -0.2883 0.3691
-0.106 0.468 0.3232 -0.2737 0.4363 -0.425 0.3132 0.1304
00000000: a530 2139 3b39 8baa 0337 8e2f 97b2 1234
00000010: e136 7419 47b6 5337 6eac efb5 28b2 6b38
00000020: c834 0c37 8937 4cad ceb4 8636 1d38 2430
00000030: 11b5 b1b8 c436 7c35 a0b3 e5b2 7637 3eb6
00000040: 61b4 8231 d7a8 32af ab30 be2e 4337 f7b5
00000050: 23b5 c9b8 3821 82b7 9234 5238 7c37 7e38
00000060: c42d 6538 efb2 ab37 3333 e1b4 9db4 e835
00000070: c9ae 7d37 2c35 61b4 fb36 cdb6 0335 2c30

arith.constant13 f2 [1, 8]
0.2917 0.8145 -0.6978 -0.3557 -0.67 0.664 0.4229 0.8643
00000000: ab34 843a 95b9 b1b5 5cb9 5039 c436 ea3a

arith.constant18 f2 [8]
0.0642 0.0291 -0.0347 -0.0363 -0.02538 0.0729 0.05328 0.01888
00000000: 1c2c 7327 71a8 a5a8 7fa6 aa2c d22a d524

arith.constant23 f2 [64]
0.0852 0.0346 -0.03284 0.05728 0.08075 0.0853 0.1327 0.0439
0.03976 -0.09076 -0.005672 0.09625 0.5864 0.06537 -0.005703 -0.0859
1.008 0.942 0.962 0.974 1.013 0.975 0.9917 1.063
1.025 0.9062 0.969 0.9946 1.076 1.018 0.9395 0.9077
-0.001327 -0.003723 0.03372 -0.0392 0.03204 0.0451 0.0286 0.02353
0.0196 0.00913 -0.007225 0.0456 -0.01262 -0.003832 -0.05273 -0.02225
0.07605 0.02747 -0.03357 0.05402 0.0871 0.08344 0.1236 0.0422
0.04004 -0.0919 -0.0004246 0.09125 0.5054 0.0774 -0.00744 -0.08466
00000000: 742d 6e28 34a8 552b 2b2d 762d 3f30 9f29
00000010: 1729 cfad cf9d 292e b138 2f2c d79d 7fad
00000020: 083c 893b b23b cb3b 0d3c cd3b ef3b 413c
00000030: 1a3c 403b c13b f53b 4e3c 123c 843b 433b
00000040: 6f95 a09b 5128 05a9 1a28 c629 5227 0626
00000050: 0525 ad20 669f d629 76a2 d99b c0aa b2a5
00000060: de2c 0827 4ca8 ea2a 932d 572d e92f 6729
00000070: 2029 e2ad f58e d72d 0b38 f42c 9e9f 6bad

arith.constant24 f2 [64, 16]
0.0592 0.0008154 0.1448 0.058 -0.001251 0.065 0.01901 0.03958
-0.2615 -0.1407 0.0943 -0.11743 0.439 0.1461 -0.0625 -0.06082
-0.208 0.03897 -0.0318 0.02998 -0.1025 -0.0639 -0.01599 -0.0694
0.014206 -0.0839 0.1974 0.12335 0.2103 -0.1617 -0.1414 -0.1681
0.08575 -0.04083 0.139 -0.03146 -0.1754 0.03333 -0.04913 0.0538
0.05927 -0.01659 -0.02786 0.05457 -0.00511 0.12335 0.01517 -0.0267
-0.007034 0.1272 -0.1332 0.01175 0.1508 -0.00796 0.06213 0.356
-0.003698 -0.09546 0.04358 -0.00648 -0.07666 0.168 -0.04092 0.1611
0.03452 0.1935 -0.3743 0.0523 -0.011665 0.00673 -0.3547 0.274
-0.1932 -0.2024 0.2546 -0.467 0.589 0.04446 0.0783 -0.01784
0.003122 0.3176 -0.3018 -0.1304 0.1729 -0.1951 0.04056 0.1741
-0.04453 -0.00758 -0.04477 -0.2786 0.0656 0.188 -0.0437 -0.001561
0.2354 0.4678 -0.03802 0.2468 0.0753 0.02783 -0.09503 0.533
-0.0814 0.1504 0.2012 -0.04495 0.322 0.28 0.0526 0.03375
0.122 -0.1753 0.1908 -0.11053 -0.0712 0.0948 0.275 -0.211
0.3215 -0.01866 -0.2634 -0.0002725 0.03065 0.12 -0.34 0.0644
-0.1808 -0.2534 0.2343 -0.01947 -0.2213 0.1467 0.2281 -0.1081
0.1461 -0.006134 -0.257 -0.00492 -0.04797 -0.1338 -0.05054 -0.02986
0.0894 0.2006 0.03088 0.06903 -0.0681 -0.00825 0.256 -0.1678
-0.03964 -0.3472 0.1034 0.166 -0.1565 0.1028 0.1508 0.0504
-0.0877 -0.0417 0.02463 -0.02367 -0.083 -0.1792 0.01651 -0.02821
0.0359 0.0717 -0.1268 -0.1442 0.2773 0.2007 -0.00789 -0.02644
0.1271 -0.1401 0.00816 0.1271 -0.008 -0.06064 -0.01223 0.2551
-0.09955 0.1802 0.267 -0.2174 -0.132 0.12317 -0.1401 0.1628
0.6245 0.5 -0.4517 0.6045 0.5234 -0.1564 -0.65 0.6567
-0.6313 0.508 0.5034 -0.3918 0.4614 0.4744 -0.134 -0.0779
0.1659 0.08673 -0.2384 0.1492 0.1881 0.1893 -0.014694 -0.0575
-0.01164 0.1855 0.009315 0.03937 0.1556 0.1666 0.2937 0.2018
0.1499 0.0635 -0.0535 0.05188 0.3066 0.08386 -0.01063 0.25
-0.1274 0.1044 0.0664 -0.05432 0.006084 0.3088 0.04617 -0.1946
-0.0678 0.2021 -0.1271 -0.1013 0.1702 -0.181 -0.04724 -0.1914
0.1313 -0.225 -0.173 -0.012985 0.07227 -0.2362 -0.0837 0.1367
00000000: 942b ae12 a230 6d2b 2095 292c de24 1129
00000010: 2fb4 81b0 092e 84af 0637 ad30 00ac c9ab
00000020: a8b2 fd28 12a8 ad27 8fae 17ac 18a4 71ac
00000030: 4623 5fad 5132 e52f bb32 2db1 86b0 61b1
00000040: 7d2d 3aa9 7330 07a8 9db1 4428 4aaa e32a
00000050: 962b 3fa4 22a7 fc2a 3c9d e52f c423 d6a6
00000060: 349f 1230 43b0 0422 d330 13a0 f42b b235
00000070: 939b 1cae 9429 a39e e8ac 6031 3da9 2831
00000080: 6b28 3132 fdb5 b22a f9a1 e41e adb5 6234
00000090: 2fb2 7ab2 1334 79b7 b638 b129 032d 91a4
000000a0: 651a 1535 d4b4 2cb0 8831 3eb2 3129 9231
000000b0: b3a9 c39f bba9 75b4 332c 0432 98a9 6596
000000c0: 8833 7c37 dea8 e633 d22c 2027 15ae 4438
000000d0: 36ad d030 7032 c1a9 2735 7b34 bc2a 5228
000000e0: cf2f 9cb1 1b32 13af 8fac 112e 6634 c1b2
000000f0: 2535 c7a4 37b4 778c d927 ae2f 71b5 1f2c
00000100: c9b1 0eb4 7f33 fca4 15b3 b230 4d33 ebae
00000110: ad30 489e 1db4 0a9d 24aa 48b0 78aa a5a7
00000120: b92d 6b32 e827 6b2c 5cac 39a0 1934 5fb1
00000130: 13a9 8eb5 9e2e 5031 02b1 942e d330 742a
00000140: 9dad 56a9 4e26 0fa6 50ad bcb1 3a24 39a7
00000150: 9828 972c 0fb0 9db0 7034 6c32 0aa0 c5a6
00000160: 1130 7cb0 2e20 1130 19a0 c3ab 43a2 1534
00000170: 5fae c431 4634 f5b2 39b0 e22f 7cb0 3631
00000180: ff38 0038 3ab7 d638 3038 01b1 33b9 4139
00000190: 0db9 1038 0738 45b6 6237 9737 4ab0 fcac
000001a0: 4f31 8d2d a1b3 c630 0532 0f32 86a3 5cab
000001b0: f6a1 f031 c520 0a29 fb30 5531 b334 7532
000001c0: cc30 102c d9aa a42a e834 5e2d 71a1 0034
000001d0: 14b0 ae2e 402c f4aa 3b1e f134 e929 3ab2
000001e0: 57ac 7832 11b0 7cae 7231 cbb1 0caa 20b2
000001f0: 3430 33b3 89b1 a6a2 a02c 8fb3 5bad 6030

arith.constant25 f2 [64, 1]
0.335 0.3474 0.1611 0.1553 0.3967 0.4382 0.2573 -0.01434
-0.0843 0.006588 0.0996 0.339 0.3965 0.3435 0.2554 0.05563
-0.1492 0.1115 0.1459 -0.0257 -0.173 0.1062 0.04544 -0.4563
-0.10864 0.15 -0.06223 -0.11426 0.4905 0.10913 0.0684 0.1725
0.2634 0.201 -0.2323 0.2905 0.0267 -0.2737 -0.2424 0.1115
-0.3848 0.05795 0.353 -0.298 0.2954 0.2913 0.3054 0.06824
-0.037 0.4417 0.2686 0.2462 0.002865 0.3123 0.2979 0.003157
0.0507 0.1268 -0.1124 0.4463 0.9155 -0.1289 -0.3132 -0.2922
00000000: 5c35 8f35 2831 f830 5936 0337 1e34 58a3
00000010: 65ad bf1e 602e 6d35 5836 7f35 1634 1f2b
00000020: c6b0 232f ab30 94a6 89b1 cc2e d129 4db7
00000030: f4ae cd30 f7ab 50af d937 fc2e 612c 8531
00000040: 3734 6f32 6fb3 a634 d626 61b4 c2b3 232f
00000050: 28b6 6b2b a635 c5b4 ba34 a934 e334 5e2c
00000060: bca8 1137 4c34 e133 de19 ff34 c434 771a
00000070: 7d2a 0f30 32af 2437 533b 20b0 03b5 adb4

arith.constant29 f2 [32]
-0.03062 0.04272 -0.09106 -0.04242 -0.03925 0.1044 0.2456 0.055
0.923 0.9707 0.914 0.8853 0.92 1.086 1.227 1.073
-0.02713 0.0372 -0.03455 0.05096 0.03574 -0.03983 -0.06195 0.0347
-0.03412 0.0464 -0.0946 -0.05438 -0.04358 0.0772 0.2188 0.04678
00000000: d7a7 7829 d4ad 6ea9 06a9 ae2e dc33 0a2b
00000010: 623b c43b 503b 153b 5c3b 583c e83c 4b3c
00000020: f2a6 c328 6ca8 862a 9328 19a9 eeab 7128
00000030: 5ea8 f029 0eae f6aa 94a9 f12c 0033 fd29

arith.constant30 f2 [32, 8]
-0.3506 0.1952 0.005257 -0.0784 0.2036 0.1628 -0.1145 0.1334
-0.207 -0.0005617 0.07806 -0.3848 -0.1842 0.3223 -0.0651 -0.3396
0.132 -0.202 -0.3079 0.1464 -0.0912 0.1056 0.2908 0.00859
0.10767 -0.09717 0.3306 0.05536 -0.2507 0.03632 -0.1515 0.1423
-0.209 0.08545 0.1979 0.0002453 -0.2267 0.0628 -0.4355 0.007446
-0.357 -0.2856 -0.1826 -0.4128 0.3127 -0.1492 0.2751 -0.089
0.0574 0.4075 0.04404 -0.141 0.4568 -0.1068 -0.09644 -0.02818
-0.3474 -0.0347 -0.092 0.408 0.4683 -0.263 -0.2908 -0.003195
-0.0713 -0.3206 -0.159 0.000611 -0.2222 0.1094 0.2142 0.2277
-0.0686 -0.0725 0.0779 -0.1971 -0.08594 0.0967 0.1418 -0.0177
-0.2976 -0.2703 -0.05917 -0.08234 -0.1515 -0.06128 -0.05914 0.1165
-0.06757 -0.1935 0.0347 0.0848 0.04163 0.5103 0.1881 0.262
-0.02954 -0.00591 -0.08386 0.002014 0.1102 0.1697 0.305 -0.3967
-0.0603 -0.2136 0.046 0.02625 -0.0444 0.0584 -0.2251 -0.3035
0.0893 0.011536 -0.114 -0.2937 0.3635 0.1632 -0.4138 -0.04395
-0.502 0.07385 -0.05347 0.364 -0.0596 0.1165 0.1442 -0.1425
0.00924 -0.02505 -0.259 -0.248 -0.2698 0.2119 0.04904 0.2096
-0.1278 0.1239 -0.1398 -0.00276 -0.2798 -0.1293 0.1348 0.01923
-0.09326 -0.2196 -0.2101 0.293 0.1304 -0.0948 -0.1226 0.05643
-0.2556 0.4275 -0.05103 -0.138 -0.0755 0.01217 -0.009834 -0.1792
-0.1929 0.07745 0.1063 0.1892 -0.1934 0.1166 0.1433 0.048
-0.06824 -0.05328 0.05035 0.2026 0.03934 0.2311 0.286 0.55
-0.0315 -0.04022 -0.1912 0.0081 0.10736 0.1737 -0.1207 0.3381
0.1076 -0.3127 -0.1384 -0.2264 0.03555 0.472 0.2001 0.1274
-0.0668 0.07007 -0.2201 -0.065 0.1368 0.1748 0.05228 0.3706
-0.1523 -0.3271 0.2527 -0.2737 -0.281 -0.2837 -0.03818 -0.066
0.12305 -0.2717 0.3455 -0.07886 0.1106 0.07434 0.3472 -0.136
-0.0247 -0.0388 0.0509 0.06256 0.02014 -0.00703 -0.2229 -0.06155
-0.0735 -0.142 -0.003803 0.01677 0.04822 0.04337 -0.4348 -0.03625
0.2378 0.1459 0.0581 0.1376 -0.1019 -0.0703 -0.1037 -0.1826
-0.0814 0.2177 -0.1315 -0.1124 0.1722 -0.4805 -0.1104 0.1406
-0.184 0.02757 -0.6494 0.0381 -0.04312 0.003819 -0.06207 -0.1261
00000000: 9cb5 3f32 621d 05ad 8432 3631 54af 4530
00000010: a0b2 9a90 ff2c 28b6 e5b1 2835 2bac 6fb5
00000020: 3930 77b2 edb4 af30 d6ad c22e a734 6620
00000030: e42e 38ae 4a35 162b 03b4 a628 d9b0 8e30
00000040: b0b2 782d 5532 050c 41b3 052c f8b6 a01f
00000050: b6b5 92b4 d8b1 9bb6 0135 c6b0 6734 b2ad
00000060: 592b 8536 a329 83b0 4f37 d6ae 2cae 37a7
00000070: 8fb5 71a8 e3ad 8736 7e37 35b4 a7b4 8b9a
00000080: 90ac 21b5 17b1 0111 1cb3 002f db32 4933
00000090: 64ac a4ac fc2c 4fb2 80ad 302e 8a30 88a4
000000a0: c3b4 53b4 93ab 45ad d9b0 d8ab 92ab 752f
000000b0: 53ac 31b2 7128 6d2d 5429 1538 0532 3134
000000c0: 90a7 0d9e 5ead 2018 0e2f 6e31 e134 59b6
000000d0: b8ab d6b2 e329 b826 afa9 7a2b 34b3 dbb4
000000e0: b72d e821 4caf b3b4 d135 3931 9fb6 a0a9
000000f0: 04b8 ba2c d8aa d335 a1ab 752f 9d30 8fb0
00000100: bb20 6aa6 25b4 f0b3 51b4 c832 472a b532
00000110: 17b0 ee2f 79b0 a799 7ab4 23b0 5030 ec24
00000120: f8ad 07b3 b9b2 b034 2c30 11ae d9af 392b
00000130: 17b4 d736 88aa 6ab0 d5ac 3b22 09a1 bcb1
00000140: 2cb2 f52c ce2e 0e32 30b2 762f 9630 252a
00000150: 5eac d2aa 722a 7c32 0929 6533 9334 6638
00000160: 08a8 26a9 1eb2 2620 df2e 8f31 baaf 6935
00000170: e32e 01b5 6eb0 3fb3 8d28 8d37 6732 1430
00000180: 46ac 7c2c 0bb3 29ac 6130 9831 b12a ee35
00000190: e0b0 3cb5 0b34 61b4 7fb4 8ab4 e3a8 39ac
000001a0: e02f 59b4 8735 0cad 142f c22c 8e35 5ab0
000001b0: 53a6 f7a8 842a 012c 2825 339f 22b3 e1ab
000001c0: b4ac 8bb0 ca9b 4b24 2c2a 8d29 f5b6 a4a8
000001d0: 9c33 ab30 702b 6730 86ae 80ac a3ae d8b1
000001e0: 36ad f732 35b0 32af 8331 b0b7 11af 8030
000001f0: e3b1 0f27 32b9 e028 85a9 d21b f2ab 09b0

arith.constant31 f2 [32, 16]
-0.1613 -0.1675 -0.2893 -0.005917 0.01052 0.01114 -0.0768 -0.36
0.2297 0.3662 0.1031 0.4429 -0.3767 0.087 -0.3015 0.2615
0.01941 -0.11 0.2124 0.4495 -0.1304 -0.341 0.0628 0.363
-0.4106 0.192 0.10114 -0.3342 0.0726 -0.309 -0.1863 0.1644
-0.4456 0.1252 -0.06616 5.26e-05 0.1071 0.3616 0.3745 -0.2466
0.0731 0.2607 0.223 -0.1558 0.1573 0.239 0.065 -0.143
0.1917 0.5225 -0.02843 0.01804 0.29 0.0804 -0.3188 0.11035
0.256 -0.2834 0.192 -0.2834 0.797 0.0625 0.06128 -0.136
0.0869 -0.2128 0.272 0.1493 -0.2073 0.2448 0.2742 0.3735
0.1847 0.05402 -0.0929 -0.04688 0.08575 0.2756 -0.189 0.1343
0.284 -0.03305 0.1359 -0.251 0.356 0.1198 0.1829 0.4463
0.1716 0.1937 -0.1271 -0.1791 0.1847 -0.05383 -0.0899 0.2502
0.414 -0.01987 -0.4082 -0.2218 0.2388 -0.2505 -0.3584 0.64
0.10736 0.0975 -0.05795 0.0803 -0.0301 -0.1879 0.2439 0.002253
-0.1247 0.0753 0.447 -0.2072 -0.0842 0.2444 0.0953 0.2146
-0.06976 0.084 0.002954 0.05338 -0.2312 0.2466 -0.376 -0.3145
-0.1322 -0.2878 0.1517 -0.1725 -0.3352 0.35 0.2253 -0.3506
-0.1178 -0.1153 0.1777 0.1289 -0.118 -0.3145 -0.03284 0.09283
0.1985 0.05698 -0.1666 -0.12445 -0.4216 -0.1046 -0.1525 -0.3752
-0.2461 -0.2678 -0.1332 -0.292 -0.1494 -0.379 0.2505 -0.04947
0.12476 -0.001287 0.1611 0.159 0.1537 -0.2247 0.1953 -0.0368
-0.0479 0.2402 -0.0096 -0.00833 0.3142 -0.0932 -0.02338 0.1501
0.05615 -0.1978 0.0766 -0.231 0.1742 -0.441 -0.1871 -0.3694
-0.00843 -0.3213 -0.2235 -0.5205 0.5996 -0.05786 0.502 0.305
-0.3164 -0.3113 -0.1874 0.1371 -0.3591 0.05893 0.1031 -0.2096
-0.2969 -0.1893 -0.01268 -0.0431 0.004536 0.268 -0.1235 0.3418
-0.0941 -0.1969 -0.1346 0.02562 -0.1736 0.2524 0.2076 0.03873
-0.1104 0.03897 0.1458 -0.2998 0.236 0.3438 0.010666 -0.08234
-0.0806 -0.0746 0.2253 0.09436 -0.1837 0.2406 0.1049 0.1307
-0.1979 0.4084 0.2322 -0.259 0.1072 0.2512 -0.00502 -0.1154
0.1781 0.2075 0.1671 0.01447 -0.2996 0.494 0.4514 -0.1404
-0.265 0.11365 -0.1735 0.5547 -0.1996 -0.304 -0.2957 0.05423
00000000: 29b1 5cb1 a1b4 0f9e 6321 b421 eaac c3b5
00000010: 5a33 dc35 992e 1637 07b6 912d d3b4 2f34
00000020: f824 0aaf cc32 3137 2cb0 75b5 052c cf35
00000030: 92b6 2532 792e 59b5 a52c f2b4 f6b1 4331
00000040: 21b7 0230 3cac 7203 db2e c935 fe35 e4b3
00000050: ae2c 2c34 2333 fcb0 0931 a633 292c 93b0
00000060: 2232 2e38 47a7 9e24 a434 252d 1ab5 102f
00000070: 1934 89b4 2532 89b4 603a 002c d82b 5ab0
00000080: 902d cfb2 5a34 c730 a2b2 d533 6334 fa35
00000090: e931 ea2a f2ad 00aa 7d2d 6934 0cb2 4c30
000000a0: 8b34 3ba8 5930 04b4 b235 ab2f da31 2437
000000b0: 7e31 3332 11b0 bbb1 e931 e4aa c1ad 0134
000000c0: a036 16a5 88b6 19b3 a433 02b4 bcb5 1f39
000000d0: df2e 3d2e 6bab 242d b5a7 03b2 ce33 9d18
000000e0: fbaf d22c 2737 a1b2 64ad d233 192e de32
000000f0: 77ac 602d 0d1a d52a 66b3 e433 04b6 08b5
00000100: 3bb0 9bb4 db30 85b1 5db5 9a35 3633 9cb5
00000110: 8aaf 61af b031 2030 8daf 08b5 34a8 f12d
00000120: 5a32 4b2b 55b1 f7af bfb6 b2ae e1b0 01b6
00000130: e0b3 49b4 43b0 acb4 c8b0 10b6 0234 55aa
00000140: fc2f 4695 2831 1731 eb30 31b3 4032 b6a8
00000150: 22aa b033 eaa0 44a0 0735 f7ad fca5 ce30
00000160: 302b 54b2 e72c 64b3 9331 0eb7 fdb1 e9b5
00000170: 51a0 24b5 27b3 2ab8 cc38 68ab 0438 e134
00000180: 10b5 fbb4 ffb1 6330 bfb5 8b2b 992e b5b2
00000190: c0b4 0fb2 7ea2 84a9 a51c 4a34 e7af 7835
000001a0: 06ae 4db2 4fb0 8f26 8eb1 0a34 a532 f528
000001b0: 11af fd28 aa30 ccb4 8d33 8035 7621 45ad
000001c0: 29ad c6ac 3633 0a2e e1b1 b333 b72e 2f30
000001d0: 55b2 8936 6e33 25b4 dc2e 0534 249d 63af
000001e0: b331 a432 5931 6923 cbb4 e737 3937 7eb0
000001f0: 3db4 462f 8db1 7038 63b2 ddb4 bbb4 f12a
