models/arduino_model/temperature_gru_tiny_int8.tflite (tflite, 359552 bytes, 5 tensors)

tfl.pseudo_qconst1 i1 [1, 8] scale=0.005657635 zero_point=0
00000000: 777f eed5 9c22 a2d9
0.6732586 0.7185197 -0.101837434 -0.24327831 -0.56576353 0.1923596 -0.53181773 -0.22064777

tfl.pseudo_qconst3 i1 [8, 16]
00000000: fa6f 299c 7f49 d6f7 0e2c 7eda 78a0 9ed1
00000010: a581 25ed e195 c5eb c7d4 3400 b021 0d77
00000020: f325 8405 7fcd 828d 1685 efdc 3506 cd84
00000030: 9d09 b524 7fab 7dd3 dc2d 9e5b 96bb 2c8f
00000040: 7f29 0559 c627 3ada 4a52 0038 4697 d550
00000050: d781 25d0 a2db e6f2 e66a 096f 541a 4653
00000060: 344b 15e7 12cf 7f36 088f 2bbb e312 1410
00000070: 2d31 5bc2 fa2f 4550 01b5 1d81 fffe f91f
-6 111 41 -100 127 73 -42 -9
14 44 126 -38 120 -96 -98 -47
-91 -127 37 -19 -31 -107 -59 -21
-57 -44 52 0 -80 33 13 119
-13 37 -124 5 127 -51 -126 -115
22 -123 -17 -36 53 6 -51 -124
-99 9 -75 36 127 -85 125 -45
-36 45 -98 91 -106 -69 44 -113
127 41 5 89 -58 39 58 -38
74 82 0 56 70 -105 -43 80
-41 -127 37 -48 -94 -37 -26 -14
-26 106 9 111 84 26 70 83
52 75 21 -25 18 -49 127 54
8 -113 43 -69 -29 18 20 16
45 49 91 -62 -6 47 69 80
1 -75 29 -127 -1 -2 -7 31

tfl.pseudo_qconst53 i1 [48, 16]
00000000: 5e36 9e44 434b 19f4 5c74 81e2 4ba6 d6b2
00000010: 5636 8b66 514c 12ea 515d 81e7 5e95 cbaa
00000020: 0333 2629 8be5 81bc c221 3ba2 f7e9 d245
00000030: f624 b8ff c1f7 ba0c be81 62a6 8ade 348c
00000040: 4c4a a670 3762 3ffb 5877 81be 6aa7 af99
00000050: 4c3b 814c 5763 2ad4 4f77 96cb 61a7 ac8e
00000060: 435b 9154 6651 18e0 5368 82c6 4681 b697
00000070: 4d43 8c5b 3e60 11f7 417f 98e5 6ba4 cac1
00000080: 4464 9d62 565d 18fe 7f65 9ccf 768a a3ac
00000090: 5026 8864 5779 05e6 677f a7e9 3cbc b0a8
000000a0: c4b1 a34f 083c 9cb6 855c 7f26 bdbc 674e
000000b0: 723d 924c 3663 12e1 5b75 810d 6485 c595
000000c0: 6c34 8d3c 453f 1500 2165 81dc 49be b6e6
000000d0: 1410 b01d 5f49 d5f5 f415 81b8 0004 d813
000000e0: 374f c640 4254 0a10 6d44 81e3 f4dd d8b0
000000f0: 5438 8169 483c 17ff 3d6e 95d0 5288 a3a1
94 54 -98 68 67 75 25 -12
92 116 -127 -30 75 -90 -42 -78
86 54 -117 102 81 76 18 -22
81 93 -127 -25 94 -107 -53 -86
3 51 38 41 -117 -27 -127 -68
-62 33 59 -94 -9 -23 -46 69
-10 36 -72 -1 -63 -9 -70 12
-66 -127 98 -90 -118 -34 52 -116
76 74 -90 112 55 98 63 -5
88 119 -127 -66 106 -89 -81 -103
76 59 -127 76 87 99 42 -44
79 119 -106 -53 97 -89 -84 -114
67 91 -111 84 102 81 24 -32
83 104 -126 -58 70 -127 -74 -105
77 67 -116 91 62 96 17 -9
65 127 -104 -27 107 -92 -54 -63
68 100 -99 98 86 93 24 -2
127 101 -100 -49 118 -118 -93 -84
80 38 -120 100 87 121 5 -26
103 127 -89 -23 60 -68 -80 -88
-60 -79 -93 79 8 60 -100 -74
-123 92 127 38 -67 -68 103 78
114 61 -110 76 54 99 18 -31
91 117 -127 13 100 -123 -59 -107
108 52 -115 60 69 63 21 0
33 101 -127 -36 73 -66 -74 -26
20 16 -80 29 95 73 -43 -11
-12 21 -127 -72 0 4 -40 19
55 79 -58 64 66 84 10 16
109 68 -127 -29 -12 -35 -40 -80
84 56 -127 105 72 60 23 -1
61 110 -107 -48 82 -120 -93 -95

tfl.pseudo_qconst54 i1 [48, 16]
00000000: 0905 f607 0707 02ff 090b f4fd 07f7 fcf8
00000010: 0805 f50a 0807 02fe 0809 f4fe 09f6 fbf8
00000020: 0333 2629 8be5 81bc c221 3ba2 f7e9 d245
00000030: fb12 dc00 e1fc dd06 dfc1 31d3 c5ef 1ac6
00000040: 0606 f909 0508 0500 070a f5fb 09f9 f9f7
00000050: 0605 f506 0708 04fc 070a f7fc 08f8 f9f6
00000060: 0507 f707 0806 02fd 0708 f6fb 06f6 faf8
00000070: 0706 f508 0609 02ff 060c f6fe 0af8 fbfa
00000080: 0508 f808 0707 0200 0a08 f8fc 09f7 f9f9
00000090: 0603 f608 070a 00fe 080a f9fe 05fb faf9
000000a0: f0eb e715 0210 e5ec df19 220a eeee 1c15
000000b0: 0a05 f607 0509 02fd 080a f501 09f5 fbf7
000000c0: 0a05 f506 0606 0200 0309 f4fd 07fa f9fe
000000d0: 0202 f803 0a08 fcff ff02 f3f9 0000 fc02
000000e0: 070a f808 090b 0102 0e09 effc fefb fbf6
000000f0: 0906 f30b 0706 0200 060b f5fb 08f4 f6f6
9 5 -10 7 7 7 2 -1
9 11 -12 -3 7 -9 -4 -8
8 5 -11 10 8 7 2 -2
8 9 -12 -2 9 -10 -5 -8
3 51 38 41 -117 -27 -127 -68
-62 33 59 -94 -9 -23 -46 69
-5 18 -36 0 -31 -4 -35 6
-33 -63 49 -45 -59 -17 26 -58
6 6 -7 9 5 8 5 0
7 10 -11 -5 9 -7 -7 -9
6 5 -11 6 7 8 4 -4
7 10 -9 -4 8 -8 -7 -10
5 7 -9 7 8 6 2 -3
7 8 -10 -5 6 -10 -6 -8
7 6 -11 8 6 9 2 -1
6 12 -10 -2 10 -8 -5 -6
5 8 -8 8 7 7 2 0
10 8 -8 -4 9 -9 -7 -7
6 3 -10 8 7 10 0 -2
8 10 -7 -2 5 -5 -6 -7
-16 -21 -25 21 2 16 -27 -20
-33 25 34 10 -18 -18 28 21
10 5 -10 7 5 9 2 -3
8 10 -11 1 9 -11 -5 -9
10 5 -11 6 6 6 2 0
3 9 -12 -3 7 -6 -7 -2
2 2 -8 3 10 8 -4 -1
-1 2 -13 -7 0 0 -4 2
7 10 -8 8 9 11 1 2
14 9 -17 -4 -2 -5 -5 -10
9 6 -13 11 7 6 2 0
6 11 -11 -5 8 -12 -10 -10

tfl.pseudo_qconst103 i1 [48, 1]
00000000: 8181 7f7f 8181 8181 8181 7f81 8181 7f81
00000010: 7f81 817f 817f 8181 7f7f 7f7f 8181 7f81
00000020: 8181 7f7f 8181 8181 817f 7f7f 817f 7f7f
-127 -127 127 127 -127 -127 -127 -127
-127 -127 127 -127 -127 -127 127 -127
127 -127 -127 127 -127 127 -127 -127
127 127 127 127 -127 -127 127 -127
-127 -127 127 127 -127 -127 -127 -127
-127 127 127 127 -127 127 127 127
