models/arduino_model/temperature_model_light-no-return-seq.tflite (tflite, 17512 bytes, 6 tensors)

arith.constant f4 [8]
-0.14600766 -0.06130774 -0.092942916 0.121780574 0.14579631 -0.04050026 0.023933671 -0.09766029
00000000: 0883 15be d31d 7bbd db58 bebd 1868 f93d
00000010: a14b 153e 9ae3 25bd 8c10 c43c 1e02 c8bd

arith.constant5 f4 [1, 8]
0.22803056 0.24326402 -0.35962236 0.61928844 0.3772679 -0.41014224 -0.18783218 -0.16061653
00000000: d880 693e 341a 793e 6c20 b8be b089 1e3f
00000010: 4229 c13e 2afe d1be 1457 40be a978 24be

arith.constant6 f4 [8, 16]
0.5040331 0.2282911 0.14782932 0.09326164 -0.20906374 -0.20457785 -0.53495646 0.45814225
-0.21249461 -0.53765494 1.4288068 -0.55034244 -0.2734197 -0.5131094 0.059904613 0.3322266
-0.009070766 -0.26809302 0.14266087 -0.32234135 0.079242155 0.03566901 0.32530817 0.0793082
0.39734414 -0.22998099 0.13791941 0.14969946 0.096965335 -0.52879405 0.3642862 0.13769531
0.47825736 -0.27217874 0.38664562 0.32506964 0.41189224 -0.39912438 -0.087409906 -0.3946475
-0.3333075 0.38962415 -0.30086902 0.08970472 0.10886096 -0.3838437 -0.2826947 0.39296085
0.4028323 0.52383786 -0.0041283527 0.46149185 -0.17699124 0.018009797 -0.23426022 0.11986972
-0.26757511 0.053096104 0.3809707 0.27917284 0.14539792 0.15167755 -0.5075169 -0.21295288
-0.17473924 -0.3199649 0.28867504 0.20621951 -0.40897205 -0.23891468 -0.25499213 0.39270255
-0.096380234 0.12929644 0.72272825 0.21325412 -0.005719839 -0.41545182 -0.49193022 -0.1368476
-0.2271371 -0.13352364 0.3291708 0.22855665 0.34345788 0.5257952 0.25312477 0.09523103
0.5000272 -0.35418415 0.1960309 -0.24770717 0.11287969 -0.3339264 0.06332244 -0.053023316
-0.07209196 0.2410722 0.4236937 0.19729128 -0.2669422 -0.019437836 0.015184041 0.31926218
0.4444946 -0.029697094 -1.1349142 0.5621724 -0.11184088 -0.011335117 0.5309526 0.50036085
-0.2924824 0.037865154 0.31543475 0.33057028 -0.1126766 -0.26045686 -0.4508175 -0.2656293
0.4523443 0.16759928 0.48951107 -0.015872372 -0.020954119 -0.58387345 -0.51344705 0.3995439
00000000: 5008 013f 24c5 693e 9260 173e f5ff be3d
00000010: ce14 56be db7c 51be e8f2 08bf 9f91 ea3e
00000020: 3098 59be c1a3 09bf 24e3 b63f 3ee3 0cbf
00000030: abfd 8bbe 235b 03bf 8a5e 753d 9b19 aa3e
00000040: 8d9d 14bc 7d43 89be b115 123e ed09 a5be
00000050: b649 a23d ab19 123d cb8e a63e 566c a23d
00000060: b170 cb3e 2380 6bbe bf3a 0d3e d14a 193e
00000070: c395 c63d 0c5f 07bf b983 ba3e 0000 0d3e
00000080: 26de f43e 035b 8bbe 6af6 c53e 876f a63e
00000090: 8ae3 d23e 085a ccbe f703 b3bd 3d0f cabe
000000a0: 48a7 aabe d17c c73e 810b 9abe 1cb7 b73d
000000b0: 7ff2 de3d 2987 c4be 5cbd 90be 2a32 c93e
000000c0: 0940 ce3e 3d1a 063f 2247 87bb a948 ec3e
000000d0: 313d 35be 4889 933c e9e1 6fbe 417e f53d
000000e0: 9bff 88be 4d7b 593d 970e c33e beef 8e3e
000000f0: 31e3 143e 5c51 1b3e a1ec 01bf 5210 5abe
00000100: d8ee 32be 70d2 a3be 37cd 933e 352b 533e
00000110: c964 d1be 0da6 74be 548e 82be 4f10 c93e
00000120: 0063 c5bd 4966 043e b804 393f 4a5f 5a3e
00000130: 7d6d bbbb 1ab6 d4be 47de fbbe c721 0cbe
00000140: a196 68be 6cba 08be 1389 a83e c10a 6a3e
00000150: b6d9 af3e 849a 063f 9299 813e 7c08 c33d
00000160: c801 003f a057 b5be 53bc 483e f3a6 7dbe
00000170: 782d e73d 67f8 aabe 32af 813d fa2e 59bd
00000180: f3a4 93bd a1db 763e 61ee d83e ba06 4a3e
00000190: a6ac 88be 193c 9fbc 7cc6 783c 5576 a33e
000001a0: cc94 e33e 5247 f3bc de44 91bf 88ea 0f3f
000001b0: d50c e5bd edb6 39bc 82ec 073f a617 003f
000001c0: 41c0 95be 7e18 1b3d aa80 a13e 8240 a93e
000001d0: fdc2 e6bd 9a5a 85be 8dd1 e6be 9000 88be
000001e0: ac99 e73e 259f 2b3e 32a1 fa3e c706 82bc
000001f0: f9a7 abbc bb78 15bf 4471 03bf 0591 cc3e

arith.constant19 f4 [64, 1]
0.42666236 0.36019933 -0.23815703 -0.105013244 0.5154067 -0.1803584 0.34411162 0.26405692
0.47367322 0.25944084 0.45328483 -0.12460522 -0.2855045 -0.26089585 -0.6106629 -0.22184673
0.27458793 0.027352266 -0.08589315 0.24667223 0.76540154 0.23339124 -0.30562487 0.4287993
0.050402835 0.022839798 -0.31210098 0.070105866 -0.1793637 -0.099475525 -0.6819785 0.20233329
0.36618316 0.22743852 0.09289399 0.2742137 -0.6833428 -0.13834578 -0.4986205 0.37949258
-0.33755568 -0.21168837 0.9706745 -0.21385483 0.06647727 -0.101032674 0.2508171 -0.2975107
0.34971023 0.32912204 -0.26098433 0.28213093 0.9548227 0.09520756 -0.13732038 0.3667115
0.77716887 0.16693321 0.09690252 0.12397158 -0.12007097 -0.54121983 -0.81694853 -0.12507823
00000000: 7d73 da3e 0c6c b83e 70df 73be 2f11 d7bd
00000010: b2f1 033f dfaf 38be 662f b03e 7832 873e
00000020: 4c85 f23e 6ed5 843e f314 e83e 0631 ffbd
00000030: a52d 92be 2494 85be 6754 1cbf ca2b 63be
00000040: ca96 8c3e dc11 e03c bfe8 afbd a597 7c3e
00000050: 5bf1 433f 1dfe 6e3e dd7a 9cbe 958b db3e
00000060: 3473 4e3d 871a bb3c b3cb 9fbe aa93 8f3d
00000070: 1eab 37be d3b9 cbbd 2596 2ebf 7530 4f3e
00000080: 5c7c bb3e a5e5 683e 343f be3d bd65 8c3e
00000090: 8eef 2ebf 84aa 0dbe 304b ffbe da4c c23e
000000a0: 19d4 acbe d6c4 58be 207e 783f c3fc 5abe
000000b0: 3c25 883d 38ea cebd 196b 803e 5353 98be
000000c0: 380d b33e af82 a83e bd9f 85be 7773 903e
000000d0: 436f 743f 2efc c23d b79d 0cbe 9cc1 bb3e
000000e0: 8af4 463f 8af0 2a3e d474 c63d d0e4 fd3d
000000f0: c5e7 f5bd 628d 0abf 8a23 51bf 8214 00be

arith.constant20 f4 [64, 16]
0.29145956 -0.053905837 -0.19996849 0.09871327 -0.4823775 -0.13002647 -0.078662775 0.19675425
-0.21112564 -0.3084424 0.23558967 -0.13660385 0.018704552 0.12983565 0.26354975 -0.0127546955
0.10006041 -0.0005637271 -0.31472647 -0.03789331 -1.0561101 -0.07342607 -0.13130142 0.20539474
-0.0350642 -0.14852831 0.28433925 -0.27314594 -0.041989885 0.2056641 0.370037 0.24613266
-0.10800603 -0.025452683 -0.16133004 -0.2004459 0.03010266 -0.14451411 0.08510016 0.16392273
0.09103146 -0.22240214 0.4564169 -0.21740596 -0.09874553 0.18012588 0.1095248 0.025408575
-0.004213379 0.07029273 -0.25572643 0.08378179 -0.22073507 0.08660758 0.022594433 0.3436674
0.025619289 -0.036063876 -0.031275366 -0.08044324 0.029029556 0.16140713 0.5057552 0.03084719
0.400083 0.58425033 -0.7122916 -0.049483668 -1.2712228 0.112530336 -0.47887805 0.702864
-0.54564124 -1.0765733 0.1365273 -0.096721284 0.14790839 0.7257976 1.165903 0.21464378
-0.033582468 -0.21256405 0.090058304 -0.15428263 0.18021831 0.081031546 0.32153276 -0.030931376
0.18400283 0.1621081 -0.34835455 0.18007484 0.11252544 0.00888672 0.11472087 0.26340204
-0.0069654174 0.0013954248 0.033508662 -0.2080758 -1.0227692 -0.26357698 0.15053713 0.34765425
-0.24247852 -0.46042496 0.2139814 -0.14146245 -0.002907575 0.23921849 0.66848165 -0.073802784
-0.3026353 -0.18920363 -0.05649233 -0.022625728 -0.5507249 -0.112887286 -0.13453865 -0.09557631
0.113393925 -0.22422384 -0.32596534 -0.11637318 -0.035000507 0.36782202 0.2884597 0.087181285
-0.031699687 -0.1198645 -0.093157284 0.14422193 -0.46629927 -0.14053665 0.020450063 0.13824017
-0.15589085 -0.19097486 -0.4535208 -0.1021036 -0.06413335 0.14100492 0.8441623 0.11970982
-0.032546744 0.0767219 -0.26717076 -0.21380241 -0.6986242 0.07014393 -0.04849682 0.06344019
-0.17591853 -0.22553793 -0.8402502 -0.3188418 0.10287829 0.34740847 0.7485435 0.28851706
0.18103245 -0.2581406 -1.3116735 -0.1564247 -2.644885 -0.5208403 0.25844938 1.3925824
-1.1470779 -1.4432741 -0.042674415 -0.15040739 -0.21855636 1.678698 0.69534415 0.707692
-0.070833035 -0.11922719 -0.0019803988 0.046202406 0.5718268 0.024654673 -0.02327309 -0.42074397
0.3366534 0.21414424 0.042522922 0.023831202 -0.099936716 -0.3558877 0.025011621 0.09837561
-0.14816092 0.030182064 -0.0053916546 -0.059869863 -0.16990957 -0.043134935 0.24772117 -0.189981
-0.03164284 -0.05780821 -0.14159578 0.050579138 -0.380689 0.11849133 0.095719986 0.08811952
0.21561609 0.43408114 -0.05537644 -0.0071951784 -0.11891934 -0.26134935 -0.0878558 -0.10770349
-0.05932285 0.038255 0.49203914 0.2426132 0.10213972 0.1256349 -0.0011277599 -0.0631098
-0.056467332 -0.14587691 0.05070586 -0.36668223 0.19700955 0.30226618 0.1996802 -0.06931658
-0.072226435 -0.0007156306 0.035288244 0.019371329 -0.18105245 0.21705328 0.028679842 0.44749552
0.13462266 0.17130785 -0.07396555 -0.014372659 -0.3927339 0.0284791 0.23010951 -0.024798391
-0.14949702 -0.15766948 0.04689338 -0.32926786 0.0003225928 0.15181167 0.21324909 0.16095613
00000000: 303a 953e 5ecc 5cbd 8ac4 4cbe 2f2a ca3d
00000010: 2ffa f6be a925 05be f319 a1bd f279 493e
00000020: 5231 58be 2aec 9dbe 6b3e 713e e1e1 0bbe
00000030: 4a3a 993c a3f3 043e feef 863e 12f9 50bc
00000040: 79ec cc3d 16c7 13ba d423 a1be 0436 1bbd
00000050: 9e2e 87bf 6860 96bd e173 06be 0053 523e
00000060: 7b9f 0fbd ce17 18be ea94 913e c9d9 8bbe
00000070: 96fd 2bbd 9c99 523e 7d75 bd3e 330a 7c3e
00000080: 4432 ddbd 2582 d0bc b433 25be b141 4dbe
00000090: db99 f63c 82fb 13be fe48 ae3d 5cdb 273e
000000a0: b46e ba3d 63bd 63be 7aaf e93e ab9f 5ebe
000000b0: 193b cabd eb72 383e 8a4e e03d a525 d03c
000000c0: 6310 8abb a3f5 8f3d 93ee 82be ca95 ab3d
000000d0: 6008 62be 515f b13d f617 b93c 2cf5 af3e
000000e0: 8bdf d13c b7b7 13bd 991a 00bd 6dbf a4bd
000000f0: 64cf ed3c e947 253e 2c79 013f 3fb3 fc3c
00000100: aed7 cc3e 6e91 153f be58 36bf 63af 4abd
00000110: 6eb7 a2bf 4e76 e63d 812f f5be e5ee 333f
00000120: 25af 0bbf 27cd 89bf d0cd 0b3e cf15 c6bd
00000130: 4c75 173e dfcd 393f 4f3c 953f 94cb 5b3e
00000140: c58d 09bd 64aa 59be 7d70 b83d 44fc 1dbe
00000150: 268b 383e def3 a53d f19f a43e cc63 fdbc
00000160: 3d6b 3c3e aaff 253e 875b b2be 8a65 383e
00000170: bd73 e63d 9b99 113c c7f2 ea3d a2dc 863e
00000180: 283e e4bb b0e6 b63a 6140 093d d311 55be
00000190: 1aea 82bf 90f3 86be 6826 1a3e bdff b13e
000001a0: 4a4c 78be d2bc ebbe f11d 5b3e 88db 10be
000001b0: 048d 3ebb b1f5 743e 9d21 2b3f ea25 97bd
000001c0: 04f3 9abe 99be 41be 8064 67bd 9759 b9bc
000001d0: 4ffc 0cbf 7331 e7bd 80c4 09be 83bd c3bd
000001e0: 133b e83d ef9a 65be eee4 a6be 1055 eebd
000001f0: b15c 0fbd 2b53 bc3e fdb0 933e 1a8c b23d
00000200: 88d7 01bd 857b f5bd 3fc9 bebd eaae 133e
00000210: c7be eebe d7e8 0fbe e486 a73c d58e 0d3e
00000220: daa1 1fbe ea8e 43be e133 e8be b11b d1bd
00000230: 5958 83bd 9863 103e 051b 583f 6c2a f53d
00000240: bc4f 05bd 5f20 9d3d 9bca 88be 05ef 5abe
00000250: 09d9 32bf 9fa7 8f3d 9aa4 46bd eeec 813d
00000260: fd23 34be 6af3 66be a31a 57bf 3b3f a3be
00000270: dab1 d23d 86df b13e 8ca0 3f3f 82b8 933e
00000280: 9260 393e 012b 84be ebe4 a7bf cc2d 20be
00000290: cc45 29c0 ca55 05bf 7a53 843e 2440 b23f
000002a0: 73d3 92bf 35bd b8bf 5ecb 2ebd 6504 1abe
000002b0: 3dcd 5fbe 93df d63f 1302 323f 4e2b 353f
000002c0: e910 91bd 632d f4bd 94c9 01bb bc3e 3d3d
000002d0: 3e63 123f 99f8 c93c 35a7 bebc c16b d7be
000002e0: d65d ac3e a148 5b3e 842c 2e3d a739 c33c
000002f0: 9fab ccbd ea36 b6be 2ce5 cc3c 2779 c93d
00000300: 7fb7 17be 6040 f73c 7aac b0bb 1a3a 75bd
00000310: c6fc 2dbe 42ae 30bd 9eaa 7d3e 618a 42be
00000320: ec9b 01bd 4dc8 6cbd 7cfe 10be 122c 4f3d
00000330: abe9 c2be 95ab f23d d708 c43d 0278 b43d
00000340: 77ca 5c3e e23f de3e 68d2 62bd 88c5 ebbb
00000350: fc8b f3bd 95cf 85be beed b3bd a693 dcbd
00000360: 84fc 72bd 46b1 1c3d 8eec fb3e 986f 783e
00000370: a12e d13d 6fa6 003e 58d1 93ba b63f 81bd
00000380: 4a4a 67bd c260 15be f3b0 4f3d c6bd bbbe
00000390: dfbc 493e a2c2 9a3e f778 4c3e daf5 8dbd
000003a0: 74eb 93bd 2899 3bba 688a 103d 9fb0 9e3c
000003b0: d065 39be 3743 5e3e fdf1 ea3c 221e e53e
000003c0: 86da 093e 536b 2f3e 407b 97bd 4d7b 6bbc
000003d0: 6b14 c9be 004d e93c d4a1 6b3e ff25 cbbc
000003e0: bf15 19be 1c74 21be 4613 403d cc95 a8be
000003f0: ac21 a939 8574 1b3e f85d 5a3e afd1 243e

sequential_1/lstm_1/while/lstm_cell_1/add_1/ReadVariableOp f4 [64]
0.023892038 0.027377047 -0.035306383 -0.0460622 0.14992554 -0.084403634 0.10152346 0.02819828
0.04994829 -0.17850384 0.2849352 -0.15852864 -0.08525692 0.06744371 0.0514584 -0.072967194
0.94938594 1.0090835 0.9405589 0.8674032 1.133095 0.9273294 0.88554657 0.9243455
0.87711 0.84075695 0.71506745 0.87070185 0.92385215 1.0352365 1.0565535 0.86798894
0.023881847 0.031473357 -0.012812343 0.019061757 0.0075549567 0.049312033 -0.028390648 0.023616014
-0.032934275 0.020118317 -0.0062549706 0.028681932 0.0005860227 0.022137325 -0.13714166 -0.06445823
0.042059176 0.02671027 -0.035217647 -0.047534417 0.12112837 -0.08421238 0.10321999 0.059805702
0.005344842 -0.21901384 0.3058408 -0.1559782 -0.08618741 0.026815258 -0.03863503 -0.0695069
00000000: 3cb9 c33c d445 e03c 6d9d 10bd b8ab 3cbd
00000010: 1586 193e d0db acbd 88eb cf3d 1400 e73c
00000020: 9496 4c3d b6c9 36be 07e3 913e 5555 22be
00000030: 2e9b aebd ee1f 8a3d 0bc6 523d d36f 95bd
00000040: f50a 733f a629 813f 78c8 703f 230e 5e3f
00000050: 4209 913f 7665 6d3f 2eb3 623f e8a1 6c3f
00000060: 488a 603f d93b 573f a90e 373f 51e6 5e3f
00000070: 9381 6c3f a182 843f 253d 873f 8634 5e3f
00000080: dda3 c33c 35ea 003d ddea 51bc 6727 9c3c
00000090: 928f f73b 6afb 493d 8193 e8bc 5f76 c13c
000000a0: 17e6 06bd 2bcf a43c 7ff6 ccbb 5ff6 ea3c
000000b0: 519f 193a 5659 b53c dd6e 0cbe ad02 84bd
000000c0: 3e46 2c3d 7fcf da3c 6140 10bd 73b3 42bd
000000d0: 2712 f83d 8a77 acbd 0165 d33d d3f6 743d
000000e0: c923 af3b 2a45 60be 2a97 9c3e c0b8 1fbe
000000f0: 0683 b0bd acab db3c c43f 1ebd a259 8ebd
