models/arduino_model/temperature_gru_tiny_int8-trained.tflite (tflite, 359552 bytes, 5 tensors)

tfl.pseudo_qconst1 i1 [1, 8] scale=0.0060043307 zero_point=0
00000000: fd60 bbf4 3102 81de
-0.018012993 0.5764158 -0.41429883 -0.07205197 0.2942122 0.012008661 -0.76255 -0.20414725

tfl.pseudo_qconst3 i1 [8, 16]
00000000: 92fb 50f6 58cc c771 a781 a60b 0feb 4ff3
00000010: f9f5 ef09 e431 dc7f d22f 0b32 f0b8 26fd
00000020: f2bd 280c b721 0781 3025 12de 412e 26f5
00000030: cd08 d6b6 7f90 9131 649c b5c8 4cfa 9102
00000040: 7f64 8c47 1a30 055a 9375 d5e6 24a0 51c1
00000050: e03c e225 e6fe 0d61 05d8 8118 b7af 1dae
00000060: c381 03df 2243 4113 e498 380b 8108 b304
00000070: ffac 3bb2 7c7f 6e55 56c2 31a0 da1f 68e0
-110 -5 80 -10 88 -52 -57 113
-89 -127 -90 11 15 -21 79 -13
-7 -11 -17 9 -28 49 -36 127
-46 47 11 50 -16 -72 38 -3
-14 -67 40 12 -73 33 7 -127
48 37 18 -34 65 46 38 -11
-51 8 -42 -74 127 -112 -111 49
100 -100 -75 -56 76 -6 -111 2
127 100 -116 71 26 48 5 90
-109 117 -43 -26 36 -96 81 -63
-32 60 -30 37 -26 -2 13 97
5 -40 -127 24 -73 -81 29 -82
-61 -127 3 -33 34 67 65 19
-28 -104 56 11 -127 8 -77 4
-1 -84 59 -78 124 127 110 85
86 -62 49 -96 -38 31 104 -32

tfl.pseudo_qconst53 i1 [48, 16]
00000000: b2ab 398c 6698 36fd 6aa0 e325 d135 814a
00000010: 9fbe 42a8 7fbc 3bfb 40a2 f80c d83b 8d4d
00000020: c3c4 37c0 7fae 3c0d 4fbf 012c 8c2f ad35
00000030: 81d1 e1a5 39b6 2b1d 1ab9 a3de 2713 ea4d
00000040: 1723 c706 1512 f07f f14c b552 a2a6 0ddd
00000050: 9be0 4781 52dd 5319 50c2 0011 f020 ad36
00000060: a5b3 4882 668c 1008 41c0 e9fa e21b 8144
00000070: baac 4a99 7fa3 460a 5ab0 e51a b32e ae3e
00000080: c9ce 3aa0 7fbc 2816 43b9 f939 9c38 b525
00000090: 9f9a 6281 7c82 5bea 738c e526 9b3c 9252
000000a0: a4a8 5681 40b7 2619 6896 e8fd d33d 9a4d
000000b0: 94a5 5281 6998 490a 7390 e623 c25c 874c
000000c0: 9baf 4f81 58c1 2d0b 768f e91e d82c 963e
000000d0: c2c0 32ba 7fb9 430a 32be ec37 af35 ba2e
000000e0: a2b5 3e8e 7fa9 27f7 4ca1 070c b454 c94a
000000f0: 16d9 1026 a932 f416 b67f 3201 1ae7 3cf2
-78 -85 57 -116 102 -104 54 -3
106 -96 -29 37 -47 53 -127 74
-97 -66 66 -88 127 -68 59 -5
64 -94 -8 12 -40 59 -115 77
-61 -60 55 -64 127 -82 60 13
79 -65 1 44 -116 47 -83 53
-127 -47 -31 -91 57 -74 43 29
26 -71 -93 -34 39 19 -22 77
23 35 -57 6 21 18 -16 127
-15 76 -75 82 -94 -90 13 -35
-101 -32 71 -127 82 -35 83 25
80 -62 0 17 -16 32 -83 54
-91 -77 72 -126 102 -116 16 8
65 -64 -23 -6 -30 27 -127 68
-70 -84 74 -103 127 -93 70 10
90 -80 -27 26 -77 46 -82 62
-55 -50 58 -96 127 -68 40 22
67 -71 -7 57 -100 56 -75 37
-97 -102 98 -127 124 -126 91 -22
115 -116 -27 38 -101 60 -110 82
-92 -88 86 -127 64 -73 38 25
104 -106 -24 -3 -45 61 -102 77
-108 -91 82 -127 105 -104 73 10
115 -112 -26 35 -62 92 -121 76
-101 -81 79 -127 88 -63 45 11
118 -113 -23 30 -40 44 -106 62
-62 -64 50 -70 127 -71 67 10
50 -66 -20 55 -81 53 -70 46
-94 -75 62 -114 127 -87 39 -9
76 -95 7 12 -76 84 -55 74
22 -39 16 38 -87 50 -12 22
-74 127 50 1 26 -25 60 -14

tfl.pseudo_qconst54 i1 [48, 16]
00000000: fcfb 03fa 06fa 0300 06fb fe02 fd03 f904
00000010: fbfd 04fb 07fc 0300 03fb 0001 fe03 fa04
00000020: fcfc 04fc 09fa 0401 05fc 0003 f803 fa04
00000030: e6f6 faed 0cf1 0906 05f2 edf9 0804 fb10
00000040: 0d13 e103 0b0a f745 f829 d82c cdcf 07ed
00000050: f7fd 07f4 08fd 0802 07fa 0002 ff03 f805
00000060: f5f6 09f0 0df1 0201 08f8 fdff fc03 f009
00000070: fcfb 05fa 08fa 0401 06fb fe02 fb03 fb04
00000080: fcfd 04fa 08fc 0301 04fb 0004 fa04 fb02
00000090: fcfc 04fa 05fa 04ff 05fb ff02 fc03 fb04
000000a0: fafb 05f8 04fc 0202 06f9 ff00 fd04 fa05
000000b0: fbfc 04fa 05fb 0300 05fb ff02 fd04 fa04
000000c0: f9fb 05f7 06fc 0301 08f8 fe02 fd03 f904
000000d0: fcfb 04fb 09fb 0501 04fb ff04 fa04 fb03
000000e0: fbfc 03fa 07fb 02ff 04fb 0001 fc05 fd04
000000f0: 06f6 0409 ea0d fd05 ee20 0c00 06fa 0ffd
-4 -5 3 -6 6 -6 3 0
6 -5 -2 2 -3 3 -7 4
-5 -3 4 -5 7 -4 3 0
3 -5 0 1 -2 3 -6 4
-4 -4 4 -4 9 -6 4 1
5 -4 0 3 -8 3 -6 4
-26 -10 -6 -19 12 -15 9 6
5 -14 -19 -7 8 4 -5 16
13 19 -31 3 11 10 -9 69
-8 41 -40 44 -51 -49 7 -19
-9 -3 7 -12 8 -3 8 2
7 -6 0 2 -1 3 -8 5
-11 -10 9 -16 13 -15 2 1
8 -8 -3 -1 -4 3 -16 9
-4 -5 5 -6 8 -6 4 1
6 -5 -2 2 -5 3 -5 4
-4 -3 4 -6 8 -4 3 1
4 -5 0 4 -6 4 -5 2
-4 -4 4 -6 5 -6 4 -1
5 -5 -1 2 -4 3 -5 4
-6 -5 5 -8 4 -4 2 2
6 -7 -1 0 -3 4 -6 5
-5 -4 4 -6 5 -5 3 0
5 -5 -1 2 -3 4 -6 4
-7 -5 5 -9 6 -4 3 1
8 -8 -2 2 -3 3 -7 4
-4 -5 4 -5 9 -5 5 1
4 -5 -1 4 -6 4 -5 3
-5 -4 3 -6 7 -5 2 -1
4 -5 0 1 -4 5 -3 4
6 -10 4 9 -22 13 -3 5
-18 32 12 0 6 -6 15 -3

tfl.pseudo_qconst103 i1 [48, 1]
00000000: 8181 8181 7f81 8181 8181 8181 8181 817f
00000010: 7f7f 7f7f 7f7f 8181 817f 8181 8181 7f7f
00000020: 7f7f 817f 7f7f 817f 817f 817f 8181 7f81
-127 -127 -127 -127 127 -127 -127 -127
-127 -127 -127 -127 -127 -127 -127 127
127 127 127 127 127 127 -127 -127
-127 127 -127 -127 -127 -127 127 127
127 127 -127 127 127 127 -127 127
-127 127 -127 127 -127 -127 127 -127
