models/arduino_model/temperature_gru_tiny_int8-light.tflite (tflite, 308152 bytes, 5 tensors)

tfl.pseudo_qconst1 i1 [1, 8] scale=0.007765815 zero_point=0
0	0x0d	0.1009556
1	0x81	-0.9862585
2	0xbc	-0.52807546
3	0x1f	0.24074027
4	0xdf	-0.2562719
5	0xcb	-0.4115882
6	0x66	0.7921131
7	0x44	0.52807546

tfl.pseudo_qconst3 i1 [8, 4]
0	0x98	-104
1	0x81	-127
2	0x46	70
3	0x33	51
4	0x7f	127
5	0x0a	10
6	0xc8	-56
7	0xf9	-7
8	0x1a	26
9	0x1a	26
10	0x11	17
11	0x81	-127
12	0x81	-127
13	0x70	112
14	0xdd	-35
15	0x03	3
16	0x3c	60
17	0x4e	78
18	0x9b	-101
19	0x81	-127
20	0x0c	12
21	0x7f	127
22	0xec	-20
23	0x97	-105
24	0x54	84
25	0x81	-127
26	0xf1	-15
27	0x6e	110
28	0xdb	-37
29	0x30	48
30	0x7f	127
31	0x41	65

tfl.pseudo_qconst53 i1 [12, 4]
0	0x04	4
1	0x5c	92
2	0xb0	-80
3	0x81	-127
4	0x17	23
5	0x7e	126
6	0xb9	-71
7	0x81	-127
8	0xc6	-58
9	0x4f	79
10	0xaa	-86
11	0x81	-127
12	0xd7	-41
13	0x26	38
14	0xca	-54
15	0x81	-127
16	0x30	48
17	0x81	-127
18	0x04	4
19	0x5f	95
20	0x20	32
21	0x81	-127
22	0x6f	111
23	0x18	24
24	0x93	-109
25	0xd1	-47
26	0x3b	59
27	0x81	-127
28	0x81	-127
29	0xbb	-69
30	0x20	32
31	0x4e	78
32	0x0f	15
33	0xbe	-66
34	0x7f	127
35	0xf0	-16
36	0x4a	74
37	0x09	9
38	0x81	-127
39	0xd7	-41
40	0x75	117
41	0x3b	59
42	0x5e	94
43	0x7f	127
44	0xaf	-81
45	0xc7	-57
46	0xc3	-61
47	0x7f	127

tfl.pseudo_qconst54 i1 [12, 4]
0	0x00	0
1	0x04	4
2	0xfc	-4
3	0xfa	-6
4	0x02	2
5	0x0a	10
6	0xfa	-6
7	0xf6	-10
8	0xfb	-5
9	0x06	6
10	0xf9	-7
11	0xf6	-10
12	0xfc	-4
13	0x04	4
14	0xfb	-5
15	0xf4	-12
16	0x08	8
17	0xea	-22
18	0x01	1
19	0x11	17
20	0x0f	15
21	0xc6	-58
22	0x33	51
23	0x0b	11
24	0xde	-34
25	0xf1	-15
26	0x12	18
27	0xd8	-40
28	0x81	-127
29	0xbb	-69
30	0x20	32
31	0x4e	78
32	0x07	7
33	0xe0	-32
34	0x3d	61
35	0xf8	-8
36	0x47	71
37	0x09	9
38	0x86	-122
39	0xd9	-39
40	0x17	23
41	0x0c	12
42	0x13	19
43	0x19	25
44	0xd6	-42
45	0xe3	-29
46	0xe1	-31
47	0x41	65

tfl.pseudo_qconst103 i1 [12, 1]
0	0x81	-127
1	0x81	-127
2	0x81	-127
3	0x81	-127
4	0x7f	127
5	0x81	-127
6	0x81	-127
7	0x81	-127
8	0x81	-127
9	0x81	-127
10	0x7f	127
11	0x7f	127
