models/arduino_model/temperature_model_light.tflite (tflite, 29956 bytes, 9 tensors)

arith.constant f4 [8]
00000000: 598d 833d be6d ee3c ee1c 0ebd 40a7 14bd
00000010: bfe8 cfbc ac32 953d f737 5a3d 3995 9a3c
0.06423444 0.029105064 -0.03469556 -0.036292315 -0.025379537 0.072850555 0.05327603 0.018869983

arith.constant5 f4 [1, 8]
00000000: 8d5a 953e 9780 503f 37a1 32bf c92d b6be
00000010: 1a8b 2bbf 69fa 293f 2f87 d83e 7749 5d3f
0.29170647 0.8144621 -0.69777244 -0.35581806 -0.6700913 0.6639772 0.42290637 0.86440223

arith.constant6 f4 [8, 8]
00000000: fca6 143e 9822 243f 085d 273f b958 51bd
00000010: 9f55 e03e 07bb f13d 82dd 52be 2f4e 823e
00000020: a418 dc3e 7a81 2e3b 1ee8 c8be 095c ea3e
00000030: 25c7 8dbd 6ad0 bdbe 0cf1 44be 9c65 0d3f
00000040: f4f0 983e bd85 e13e 7a22 f13e 9387 a9bd
00000050: 0ac4 99be 9cbc d03e ea9c 033f dc8a 043e
00000060: 5615 a2be 751e 16bf 767e d83e d18c af3e
00000070: a7f6 73be ae91 5cbe 6dc8 ee3e 48c4 c7be
00000080: 8011 8cbe 9137 303e 4adf 1abd 5e43 e6bd
00000090: ab59 153e 7eb6 d73d e95e e83e d7e4 bebe
000000a0: f86a a4be 5912 19bf 2a08 273c 0547 f0be
000000b0: 5a32 923e a730 0a3f 2a8b ef3e 3ec4 0f3f
000000c0: 5d8d b83d 86a9 0c3f 2ddf 5dbe 5052 f53e
000000d0: 3353 663e 322a 9cbe dd94 93be b0fe bc3e
000000e0: 3923 d9bd b3ae ef3e a77b a53e f318 8cbe
000000f0: cc57 df3e 41ae d9be 2c69 a03e 0d80 053e
0.14516824 0.64115286 0.6537633 -0.051110003 0.43815324 0.11803251 -0.20592311 0.25450274
0.4298755 0.0026627467 -0.3923959 0.45773342 -0.069227494 -0.3707307 -0.19232577 0.5523317
0.29871333 0.44047347 0.47096616 -0.08277812 -0.30032378 0.40768898 0.51411307 0.12943596
-0.31656903 -0.58640224 0.42283982 0.34287122 -0.23824559 -0.21539947 0.46637288 -0.39016938
-0.273571 0.17208697 -0.0378106 -0.11243318 0.14584987 0.105328545 0.4538491 -0.37283966
-0.3211286 -0.5979362 0.010194818 -0.46929184 0.2855404 0.5398049 0.4678586 0.56158817
0.09011338 0.5494617 -0.21667166 0.47914362 0.22492675 -0.30500942 -0.2882451 0.3691306
-0.10602421 0.46812972 0.32320902 -0.27362785 0.4362167 -0.42515758 0.3133024 0.13037129

arith.constant21 f4 [64, 1]
00000000: 6682 ab3e 7de8 b13e b6fb 243e 4e02 1f3e
00000010: 231f cb3e 0b62 e03e 0bb9 833e b4f6 6abc
00000020: 5aa2 acbd 43d3 d73b 93f9 cb3d 3aa0 ad3e
00000030: 3001 cb3e 71da af3e ebb4 823e 2cd5 633d
00000040: 44ce 18be d453 e43d 9159 153e c185 d2bc
00000050: 272a 31be 1273 d93d a112 3a3d 06a8 e9be
00000060: 128b debd e499 193e 26e9 7ebd 5cfd e9bd
00000070: 0211 fb3e 4e79 df3d 8929 8c3d 9b9e 303e
00000080: abda 863e afd3 4d3e 0ee3 6dbe fac2 943e
00000090: 76ca da3c 7a24 8cbe 623e 78be 056d e43d
000000a0: 14fe c4be 0654 6d3d 2dbd b43e 659e 98be
000000b0: e045 973e 4a23 953e f466 9c3e 6dbd 8b3d
000000c0: 4687 17bd 2d15 e23e 7c84 893e 5b21 7c3e
000000d0: b0c9 3b3b 76d9 9f3e 0470 983e 3aee 4e3b
000000e0: 86a8 4f3d 4ed4 013e 5747 e6bd bd81 e43e
000000f0: 3f6e 6a3f 6af7 03be 996a a0be 469c 95be
0.33497924 0.34747687 0.16111645 0.15528223 0.39672193 0.438248 0.25727114 -0.014341045
-0.084294036 0.0065864637 0.09959712 0.33911306 0.39649343 0.34346345 0.25528654 0.05562322
-0.14922434 0.111488014 0.14584948 -0.025698544 -0.17301236 0.10617651 0.045427922 -0.45636004
-0.10866369 0.15000111 -0.062234066 -0.114252776 0.49036413 0.10911809 0.0684386 0.17248003
0.26338705 0.20100282 -0.23231146 0.29055005 0.026707869 -0.2737158 -0.24242547 0.11153606
-0.38475096 0.05794146 0.3530058 -0.29808345 0.29545498 0.29128486 0.30547297 0.068232395
-0.03699424 0.4415678 0.2685889 0.24622099 0.002865415 0.31220597 0.2977296 0.00315751
0.050697826 0.12678644 -0.11244076 0.44630232 0.9157447 -0.1288735 -0.31331328 -0.2922079

arith.constant22 f4 [64, 16]
00000000: c67d 723d 30b7 553a d63c 143e d7ac 6d3d
00000010: 86fc a3ba 6613 853d e3b8 9b3c b424 223d
00000020: 32de 85be 001b 10be b616 c13d dc82 f0bd
00000030: 53b9 e03e f998 153e 1bf2 7fbd 181f 79bd
00000040: ad0f 55be 40a0 1f3d 9b40 02bd 049f f53c
00000050: b4ee d1bd 3cee 82bd 600a 83bc fb21 8ebd
00000060: 6bb0 683c 36d1 abbd 7917 4a3e c4ae fc3d
00000070: c75b 573e 7e92 25be 99b5 10be 3e26 2cbe
00000080: fd9c af3d 4633 27bd 4961 0e3e 09df 00bd
00000090: 3ea9 33be 5f82 083d 3e34 49bd 076f 5c3d
000000a0: caca 723d c9da 87bc 7e32 e4bc dd74 5f3d
000000b0: ec73 a7bb 10aa fc3d 8b8c 783c e1c5 dabc
000000c0: 8983 e6bb 3c4e 023e b85a 08be eb8d 403c
000000d0: a662 1a3e 4052 02bc f489 7e3d b33d b63e
000000e0: e458 72bb 097d c3bd b27a 323d 1760 d4bb
000000f0: a100 9dbd c7f7 2b3e b799 27bd 2a0d 253e
00000100: 5051 0d3d ca15 463e 31a1 bfbe b537 563d
00000110: a618 3fbc 2379 dc3b e4a1 b5be 7f3f 8c3e
00000120: f2dc 45be e63d 4fbe 6065 823e 2726 efbe
00000130: c3c1 163f f81b 363d d85d a03d 3e1e 92bc
00000140: 1cad 4c3b ae98 a23e 8777 9abe a979 05be
00000150: 8afe 303e 71c6 47be 9a2b 263d 1d44 323e
00000160: 8569 36bd cd65 f8bb c75a 37bd 4495 8ebe
00000170: 1052 863d 3575 403e 97f2 32bd d4a9 ccba
00000180: c90d 713e 6b8f ef3e 65ba 1bbd e4bd 7c3e
00000190: e344 9a3d c603 e43c 519e c2bd dc86 083f
000001a0: 36c2 a6bd 96fb 193e 84f0 4d3e 2a10 38bd
000001b0: d8ef a43e 1b69 8f3e 8982 573d 0849 0a3d
000001c0: 8ae0 f93d d075 33be b16a 433e 2e63 e2bd
000001d0: 56e5 91bd 471f c23d 54b1 8c3e a22f 58be
000001e0: bfa8 a43e 2eeb 98bc 44d9 86be ffe9 8eb9
000001f0: 2921 fb3c 7cc6 f53d e423 aebe 18df 833d
00000200: ef1c 39be ccbb 81be cee2 6f3e 628c 9fbc
00000210: 37a9 62be ac39 163e 97af 693e a263 ddbd
00000220: 42af 153e a8f1 c8bb ee91 83be 2c31 a1bb
00000230: b48e 44bd 89f6 08be 4b0b 4fbd 389a f4bc
00000240: 9711 b73d 4f5c 4d3e 85fb fc3c 8d63 8d3d
00000250: 8770 8bbd ae23 07bc 711b 833e 74d5 2bbe
00000260: dc6b 22bd d0c0 b1be 03c9 d33d 5200 2a3e
00000270: 093e 20be 6684 d23d de5c 1a3e b98a 4e3d
00000280: 9396 b3bd 97ca 2abd 03b6 c93c 9eee c1bc
00000290: c30b aabd 4b7a 37be 1b32 873c 1d19 e7bc
000002a0: bdf6 123d 35e1 923d 60d0 01be ee96 13be
000002b0: 8ffa 8d3e 5472 4d3e b639 01bc 599f d8bc
000002c0: a318 023e 5086 0fbe 13cc 053c 7b1e 023e
000002d0: d51e 03bc 9d64 78bd 9e59 48bc ba95 823e
000002e0: 9be4 cbbd df8f 383e 8dbf 883e adaf 5ebe
000002f0: 6d1c 07be 873e fc3d 2973 0fbe f8b5 263e
00000300: ede9 1f3f db06 003f 1638 e7be f8ce 1a3f
00000310: 6301 063f b611 20be d865 26bf 622b 283f
00000320: 93a3 21bf ddf7 013f addc 003f 07a8 c8be
00000330: c74d ec3e b3da f23e f537 09be ec86 9fbd
00000340: 42db 293e 779d b13d be22 74be dfb1 183e
00000350: 929c 403e 3ad2 413e 01ca 70bc 2d80 6bbd
00000360: 2dbe 3ebc 67f4 3d3e f896 183c d045 213d
00000370: cc5a 1f3e 119a 2a3e e963 963e 96af 4e3e
00000380: 8e8c 193e 10f8 813d c11f 5bbd 2877 543d
00000390: 8aff 9c3e 9ac0 ab3d 5d27 2ebc ce08 803e
000003a0: 9471 02be 0fb4 d53d 78f7 873d 4a82 5ebd
000003b0: 4658 c73b 2527 9e3e 3e15 3d3d 4949 47be
000003c0: b2d3 8abd fdfa 4e3e 1820 02be e08c cfbd
000003d0: 4c47 2e3e b162 39be df78 41bd e709 44be
000003e0: 318b 063e 7167 66be d210 31be 1ebe 54bc
000003f0: 1df2 933d 9fd3 71be 0564 abbd 0bf0 0b3e
0.05920198 0.0008152602 0.14476332 0.05802616 -0.0012511171 0.064978406 0.01900906 0.039585784
-0.26146084 -0.140728 0.0942816 -0.117437094 0.4389139 0.14609136 -0.06248675 -0.06082067
-0.20806761 0.038971186 -0.031799894 0.029983051 -0.10250607 -0.06393096 -0.015996158 -0.06940075
0.014202218 -0.08389513 0.19735517 0.123380214 0.21031104 -0.16169164 -0.14131774 -0.16811463
0.08574865 -0.040820383 0.13904299 -0.031462703 -0.1754503 0.033327457 -0.049122088 0.05381682
0.059275426 -0.016583817 -0.027856108 0.05455481 -0.0051102545 0.12337124 0.015170227 -0.026705684
-0.007034723 0.12725157 -0.13315856 0.011752586 0.15076694 -0.00795418 0.06214328 0.35593948
-0.0036979252 -0.09545333 0.043574043 -0.0064811814 -0.076661356 0.16793738 -0.04091808 0.16118303
0.034501374 0.1934425 -0.37427667 0.05229922 -0.0116635915 0.006728308 -0.35475075 0.27392194
-0.19322565 -0.20238456 0.25467968 -0.46708795 0.58889407 0.044460267 0.07830399 -0.017836686
0.003123111 0.3175711 -0.30169317 -0.13034691 0.17284599 -0.19509293 0.040568925 0.17408796
-0.044534225 -0.007580495 -0.044764306 -0.27848256 0.06558621 0.18794711 -0.043688383 -0.0015614578
0.23540415 0.46789107 -0.038019557 0.24681813 0.0753267 0.02783383 -0.09502853 0.5333078
-0.081425115 0.15037379 0.2011128 -0.04493729 0.32214236 0.28009877 0.052614722 0.033761054
0.122010306 -0.1752541 0.19083668 -0.11054073 -0.071238205 0.09478622 0.2747904 -0.2111192
0.32159993 -0.01866683 -0.26337636 -0.0002725869 0.03065546 0.120007485 -0.34011757 0.06439036
-0.18077444 -0.2533859 0.23426363 -0.01947612 -0.22134863 0.14670438 0.22820888 -0.10810019
0.14617637 -0.0061323233 -0.25697273 -0.004919192 -0.047987655 -0.13375296 -0.05054788 -0.029858693
0.08938902 0.20054744 0.030881653 0.069037534 -0.06808572 -0.008248253 0.25606874 -0.16780645
-0.039653644 -0.34717417 0.10341074 0.16601685 -0.15648665 0.10279159 0.15074489 0.050425265
-0.08768954 -0.04169711 0.024622923 -0.023673352 -0.083030246 -0.17917745 0.016503384 -0.028210217
0.03587984 0.07171861 -0.12677145 -0.14413044 0.27730224 0.20063144 -0.0078872945 -0.02644317
0.1270471 -0.1401608 0.008166331 0.1270694 -0.008002956 -0.060642827 -0.012228398 0.25504857
-0.099557124 0.18023632 0.26708642 -0.21746702 -0.13194437 0.12316614 -0.14008774 0.16280353
0.6246632 0.5001046 -0.45159978 0.6047206 0.52345866 -0.15631756 -0.6499915 0.65691197
-0.6314022 0.50768834 0.50336725 -0.39190695 0.4615309 0.4743248 -0.13400252 -0.07789406
0.16587546 0.08672612 -0.23841378 0.14911602 0.18809727 0.18927851 -0.014696599 -0.057495285
-0.011642021 0.18550263 0.0093133375 0.03937322 0.1556198 0.16660334 0.293731 0.20184168
0.14995024 0.06346142 -0.05349708 0.05187145 0.3066371 0.08386345 -0.010629502 0.25006717
-0.12738639 0.10434734 0.06638998 -0.054323472 0.006083521 0.3088924 0.046162836 -0.1946155
-0.06778659 0.20212932 -0.12707555 -0.10134292 0.17019385 -0.18104054 -0.047234412 -0.19144402
0.13139035 -0.22500397 -0.17291573 -0.012984781 0.07223914 -0.23615883 -0.083686866 0.13665788

sequential_3_1/lstm_6_1/while/lstm_cell_1/add_1/ReadVariableOp f4 [64]
00000000: 098b ae3d 79b8 0d3d a388 06bd 87a6 6a3d
00000010: 615f a53d 45c4 ae3d 22e6 073e d0e5 333d
00000020: f3e8 223d f8d5 b9bd bfdf b9bb 622d c53d
00000030: e52e 163f 97d9 853d 3bd6 babb 41dd afbd
00000040: 3cfe 803f ca15 713f da42 763f 8360 793f
00000050: 579c 813f 84a6 793f 98de 7d3f 921b 883f
00000060: 6638 833f 1c0b 683f 9423 783f d093 7e3f
00000070: e9c9 893f 014c 823f 2186 703f 806b 683f
00000080: 7fd1 adba 5d00 74bb 891c 0a3d 0a9d 20bd
00000090: 6a48 033d 56b3 383d 8933 ea3c dfbb c03c
000000a0: 0fad a03c 60a7 153c 38b6 ecbb 8bb7 3a3d
000000b0: 93b3 4ebc a110 7bbb 030a 58bd c63d b6bc
000000c0: decf 9b3d 3a0f e13c a38f 09bd 663f 5d3d
000000d0: 0f53 b23d 8eea aa3d 911e fd3d 84d2 2c3d
000000e0: d9fd 233d e738 bcbd 6895 deb9 ffeb ba3d
000000f0: 105c 013f 1e88 9e3d b1c7 f3bb 3c5e adbd
0.085226126 0.034599755 -0.03284515 0.05728772 0.08074833 0.08533529 0.13271382 0.04392034
0.03977294 -0.090740144 -0.0056724246 0.09627797 0.58665305 0.065356426 -0.005701808 -0.08587123
1.0077586 0.9417387 0.9619576 0.9741289 1.0125836 0.9751971 0.99167776 1.0633414
1.0251586 0.9064195 0.9692929 0.99444294 1.0764743 1.0179445 0.93954664 0.9078903
-0.0013261287 -0.0037231662 0.03371862 -0.039212264 0.03205148 0.045092903 0.028589027 0.023527084
0.01961377 0.009134144 -0.0072238706 0.045585196 -0.012616056 -0.0038309472 -0.052743923 -0.022246253
0.07608007 0.02747308 -0.03358425 0.05401554 0.087072484 0.08345519 0.12359346 0.04219295
0.04003701 -0.09190541 -0.00042454456 0.09127044 0.505311 0.07740806 -0.0074395766 -0.084652394

arith.constant25 f4 [32, 16]
00000000: de2b 25be 3f8e 2bbe d027 94be 37d7 c1bb
00000010: 9b65 2c3c 3083 363c 3336 9dbd 665b b8be
00000020: 3249 6b3e d87b bb3e ee18 d33d 98b2 e23e
00000030: 94d0 c0be 7816 b23d 7c62 9abe d8db 853e
00000040: f7f1 9e3c 134b e1bd 1b71 593e c518 e63e
00000050: e972 05be 6ea6 aebe e594 803d cae7 b93e
00000060: c94f d2be 32a0 443e 5611 cf3d aa24 abbe
00000070: 179d 943d bd4b 9ebe 8ab6 3ebe 1169 283e
00000080: a725 e4be 8247 003e 2382 87bd c891 5c38
00000090: ea60 db3d 5418 b93e 8bb6 bf3e 2588 7cbe
000000a0: 0bc3 953d 7174 853e 5f6e 643e 0285 1fbe
000000b0: d52f 213e 42b2 743e 3f20 853d 9d5a 12be
000000c0: 504c 443e d4c3 053f 2be3 e8bc 25bb 933c
000000d0: c08e 943e 3caa a43d 7b3b a3be 8f0c e23d
000000e0: 332b 833e 1224 91be faa0 443e 3727 91be
000000f0: 59f0 4b3f 6b0c 803d 130a 7b3d 2b47 0bbe
00000100: 97f5 b13d 5ce5 59be b245 8b3e cedc 183e
00000110: a837 54be 4790 7a3e 4c57 8c3e b93e bf3e
00000120: 932f 3d3e 3437 5d3d db42 bebd d802 40bd
00000130: ca9d af3d 4c21 8d3e 578b 41be 3782 093e
00000140: b164 913e f964 07bd 9217 0b3e 7179 80be
00000150: 5646 b63e 0369 f53d 1b3e 3b3e 4d74 e43e
00000160: bbb7 2f3e bb6a 463e 231a 02be bd65 37be
00000170: e610 3d3e a685 5cbd f223 b8bd 6d28 803e
00000180: c006 d43e 8bbb a2bc b304 d1be 0c13 63be
00000190: 4788 743e 1b41 80be c972 b7be 6fee 233f
000001a0: d6de db3d 3caf c73d 5854 6dbd 818e a43d
000001b0: e495 f6bc 4c61 40be 2fce 793e ccad 133b
000001c0: 8267 ffbd d34b 9a3d ffe5 e43e 431b 54be
000001d0: 717f acbd bd4f 7a3e 6d2e c33d 5eb1 5b3e
000001e0: 52d9 8ebd c20a ac3d a696 413b dca1 5a3d
000001f0: 48ca 6cbe f188 7c3e a789 c0be 7cf1 a0be
00000200: 1951 07be 6167 93be bf5d 1b3e 4292 30be
00000210: 35a7 abbe 1b3d b33e 9db7 663e 6a74 b3be
00000220: f334 f1bd 122b ecbd bdf3 353e dc0a 043e
00000230: 53aa f1bd a607 a1be b787 06bd ad24 be3d
00000240: 8c4a 4b3e 4257 693d 0d9b 2abe 6fe7 febd
00000250: 9ad1 d7be d13b d6bd 0719 1cbe 432c c0be
00000260: 7dff 7bbe 6728 89be 1a68 08be ba8b 95be
00000270: e60e 19be a305 c2be 1435 803e d1a0 4abd
00000280: 7a84 ff3d 1bbd a8ba 0dfb 243e 12e4 223e
00000290: ce65 1d3e ee18 66be 0af0 473e e8ca 16bd
000002a0: 8939 44bd 9f08 763e e246 1dbc 0689 08bc
000002b0: 12ef a03e 72e1 bebd e477 bfbc cfc7 193e
000002c0: 25f9 653d 3b8b 4abe cee6 9c3d 0c7a 6cbe
000002d0: 5a56 323e bfca e1be f4aa 3fbe 3427 bdbe
000002e0: 0c26 0abc 0876 a4be 7be3 64be eb30 05bf
000002f0: a788 193f a7ff 6cbd 2d8a 003f 3020 9c3e
00000300: 3ef3 a1be 3863 9fbe fce0 3fbe 5864 0c3e
00000310: d4d8 b7be 3a69 713d 621c d33d a499 56be
00000320: af00 98be 0ad9 41be 23ca 4fbc f888 30bd
00000330: df95 943b c437 893e 90ed fcbd 7dfc ae3e
00000340: cbc2 c0bd 929e 49be 91d2 09be 0ada d13c
00000350: 89bc 31be 7c3c 813e c992 543e dfab 1e3d
00000360: 031c e2bd 609e 1f3d 524c 153e e379 99be
00000370: 2592 713e 3c0c b03e bcb3 2e3c c696 a8bd
00000380: d927 a5bd 96b6 98bd e4c2 663e 3941 c13d
00000390: d811 3cbe 9155 763e 75e9 d63d 8fe5 053e
000003a0: 58a1 4abe dc1f d13e 75b8 6d3e d4ac 84be
000003b0: cf80 db3d 7fa5 803e 538e a4bb b75b ecbd
000003c0: 716a 363e 5871 543e 4225 2b3e fe12 6d3c
000003d0: 5365 99be 9fea fc3e 9017 e73e b6c5 0fbe
000003e0: c895 87be b7cc e83d 2eaa 31be a5f4 0d3f
000003f0: fa63 4cbe 8e9b 9bbe 335b 97be ac20 5e3d
-0.16130015 -0.16753481 -0.28936625 -0.005915548 0.0105222715 0.011139676 -0.07676353 -0.3600723
0.2297714 0.36617923 0.10307489 0.4427688 -0.37659132 0.08695692 -0.30153263 0.2614429
0.019402487 -0.110006474 0.21234553 0.44940773 -0.13032116 -0.3411135 0.062783994 0.36309654
-0.41076496 0.19201735 0.101107284 -0.3342641 0.07256525 -0.3091716 -0.1862432 0.1644633
-0.44559976 0.12527278 -0.066166185 5.2587857e-05 0.10711844 0.36151373 0.37443957 -0.2466131
0.07312592 0.260654 0.22307728 -0.15578082 0.15740903 0.23896125 0.06500291 -0.14292379
0.19169736 0.52251935 -0.028428635 0.018033573 0.2901516 0.08040282 -0.31881317 0.110375516
0.25618896 -0.28347832 0.19202033 -0.2835023 0.79663616 0.062523685 0.061288904 -0.13601367
0.08689421 -0.212789 0.2720161 0.1492798 -0.20724356 0.244691 0.27410352 0.3735254
0.1847518 0.054007724 -0.092900954 -0.046877712 0.08575018 0.27564466 -0.1890081 0.1342858
0.28397134 -0.03305528 0.1358321 -0.25092652 0.35600537 0.1198292 0.1828541 0.4461998
0.17159931 0.19376652 -0.12705283 -0.17909904 0.18463477 -0.053838395 -0.08991231 0.25030842
0.414114 -0.019864818 -0.40823898 -0.22175235 0.2388011 -0.25049672 -0.35829762 0.64035696
0.10735862 0.0975022 -0.057941765 0.08034993 -0.03010077 -0.18787116 0.24395059 0.002253401
-0.124709144 0.075339936 0.44706723 -0.20713525 -0.08422745 0.2444448 0.095303394 0.21454379
-0.06975044 0.084004894 0.0029539256 0.053377017 -0.23124039 0.24661614 -0.3760502 -0.31434238
-0.1321453 -0.2878981 0.1517248 -0.17243293 -0.33526006 0.35007557 0.2253098 -0.35049754
-0.117776774 -0.115316525 0.1776876 0.12894768 -0.11800065 -0.31451148 -0.03284427 0.09284339
0.19852656 0.05696798 -0.1666071 -0.12446486 -0.421521 -0.10460628 -0.15243922 -0.3753377
-0.2460918 -0.26788637 -0.13320962 -0.29208165 -0.1494709 -0.37894925 0.25040495 -0.049469773
0.1247644 -0.0012873741 0.16111393 0.15907314 0.15370867 -0.22470447 0.19525161 -0.0368146
-0.047906432 0.24026726 -0.009599419 -0.00833345 0.31432396 -0.09320344 -0.023372598 0.15017627
0.056145806 -0.19779675 0.0766121 -0.23093432 0.17415753 -0.44099995 -0.18717557 -0.36943972
-0.008431923 -0.321213 -0.22352402 -0.5202777 0.5997414 -0.057860997 0.5021084 0.30493307
-0.31630892 -0.31130385 -0.18738168 0.13710153 -0.35907614 0.058938242 0.10308148 -0.20957047
-0.29688022 -0.1893045 -0.0126824705 -0.043099374 0.0045344676 0.26800358 -0.12349999 0.34177008
-0.09412154 -0.19689396 -0.13459231 0.025616664 -0.17357077 0.25241458 0.20759119 0.038738128
-0.11040499 0.038969398 0.14579895 -0.29975805 0.23590906 0.34384334 0.010662969 -0.08231883
-0.08064241 -0.074567005 0.22535282 0.09436268 -0.18366182 0.24056078 0.10493747 0.13075851
-0.1978811 0.4084462 0.23214896 -0.25913107 0.10717928 0.25126263 -0.005021849 -0.11540931
0.17814042 0.20746362 0.16713431 0.01446986 -0.29960117 0.49397752 0.45135164 -0.14040264
-0.26481462 0.11367171 -0.17350075 0.5545142 -0.19960013 -0.30392116 -0.29561767 0.054230377

arith.constant26 f4 [32, 8]
00000000: 7b73 b3be 05ed 473e 6345 ac3b 6b92 a0bd
00000010: 6582 503e d4c4 263e b07b eabd 64ae 083e
00000020: fb01 54be 5e36 13ba d1dd 9f3d 9f06 c5be
00000030: c990 3cbe 84f4 a43e 4251 85bd 00d7 adbe
00000040: 031d 073e 76d2 4ebe 9e98 9dbe d2d1 153e
00000050: 09b2 babd 143d d83d 47da 943e 49b2 0c3c
00000060: 508f dc3d 9ffe c6bd 2032 a93e 29c0 623d
00000070: e255 80be a2cd 143d 9413 1bbe f6c6 113e
00000080: 990f 56be 5efc ae3d ac9a 4a3e c89f 8039
00000090: 1d2a 68be d097 803d 7ffd debe 5e0e f43b
000000a0: 3ec7 b6be 9230 92be aaf9 3abe 0865 d3be
000000b0: 571e a03e f8cc 18be 45d9 8c3e bd43 b6bd
000000c0: 5822 6b3d 2f92 d03e c868 343d b455 10be
000000d0: 1ce8 e93e 17bc dabd 1a7d c5bd 9ce4 e6bc
000000e0: 07e8 b1be 5d2a 0ebd b25b bcbd 44e0 d03e
000000f0: d0cb ef3e f299 86be 89e7 94be c355 51bb
00000100: 0af1 91bd 742d a4be 70ef 22be 9d11 203a
00000110: 8377 63be 3e0f e03d c568 5b3e fb28 693e
00000120: 1185 8cbd 817c 94bd b379 9f3d 0de2 49be
00000130: c10a b0bd 170a c63d 8b46 113e aef5 90bc
00000140: b568 98be 6366 8abe f96d 72bd 07ad a8bd
00000150: e51b 1bbe c6f6 7abd c13c 72bd 1590 ee3d
00000160: ae5f 8abd 281c 46be 8d15 0e3d 30a4 ad3d
00000170: ac75 2a3d 02a2 023f 7ead 403e be1f 863e
00000180: 0bf5 f1bc c1a3 c1bb b5c2 abbd daff 033b
00000190: a1ce e13d 65b3 2d3e d219 9c3e ad1d cbbe
000001a0: befe 76bd 29c8 5abe 655a 3c3d 79fa d63c
000001b0: e9df 35bd c34a 6f3d 2a85 66be 595d 9bbe
000001c0: aaea b63d 79f7 3c3c 6e71 e9bd 8a5f 96be
000001d0: 0928 ba3e 0c22 273e 12db d3be 9509 34bd
000001e0: f77f 00bf 1f34 973d 21fc 5abd a76f ba3e
000001f0: c82d 74bd 6998 ee3d f09d 133e 4cd3 11be
00000200: ef61 173c 0b39 cdbc 1b9b 84be 2104 7ebe
00000210: e31a 8abe 3dfe 583e 30ed 483d fd9b 563e
00000220: 97ee 02be dacf fd3d d013 0fbe bfd0 34bb
00000230: cf45 8fbe f46a 04be 860a 0a3e 6f88 9d3c
00000240: edfe bebd 4ce3 60be bf28 57be 7c0c 963e
00000250: 6079 053e 0e24 c2bd 7028 fbbd 981f 673d
00000260: aedb 82be a0e1 da3e 30f4 50bd d43c 0dbe
00000270: 9499 9abd 106e 473c ee20 21bc 6f88 37be
00000280: e371 45be 0d9d 9e3d 80bf d93d a6c9 413e
00000290: 15f6 45be 64c1 ee3d fbcf 123e 389b 443d
000002a0: b6c9 8bbd 533c 5abd da41 4e3d 478d 4f3e
000002b0: 4a1c 213d 8dad 6c3e a050 923e 9ec5 0c3f
000002c0: 0306 01bd 3cc2 24bd d8b2 43be 3cca 043c
000002d0: d4ed db3d 61d0 313e 3233 f7bd bf1a ad3e
000002e0: 9655 dc3d 0c1c a0be 2fcb 0dbe b6e3 67be
000002f0: ae95 113d 74a9 f13e f9e4 4c3e 8f77 023e
00000300: 1ab4 88bd 7b72 8f3d 3b50 61be 7814 85bd
00000310: 7922 0c3e 10fd 323e f410 563d 27bd bd3e
00000320: 69fb 1bbe ac89 a7be d06e 813e 6026 8cbe
00000330: 32e4 8fbe 3c30 91be a356 1cbd b125 87bd
00000340: 1206 fc3d 262e 8bbe 5eeb b03e 1d80 a1bd
00000350: 4270 e23d 5141 983d f5b0 b13e 0045 0bbe
00000360: b26a cabc a0eb 1ebd 1474 503d 2a24 803d
00000370: 0b0c a53c c661 e6bb 0133 64be ea24 7cbd
00000380: dd73 96bd bf5e 11be 7646 79bb 8557 893c
00000390: ff89 453d 0592 313d 95ad debe 747b 14bd
000003a0: 2186 733e 4c5e 153e b30e 6e3d cfe1 0c3e
000003b0: 38c9 d0bd 3afa 8fbd 1251 d4bd b008 3bbe
000003c0: 16c0 a6bd dedc 5e3e 619f 06be 0346 e6bd
000003d0: 1756 303e d80d f6be b522 e2bd f408 103e
000003e0: 2b57 3cbe 64d3 e13c d748 26bf 4d08 1c3d
000003f0: ca93 30bd a24e 7a3b 7d4a 7ebd fe2d 01be
-0.35049042 0.1952401 0.005257295 -0.07840427 0.20362242 0.16286021 -0.11449373 0.13347775
-0.2070388 -0.00056157063 0.0780598 -0.38481614 -0.18414606 0.322178 -0.06509639 -0.33953094
0.13194661 -0.20197472 -0.307805 0.14630821 -0.09115989 0.10558525 0.29072782 0.008587428
0.10769522 -0.09716534 0.33046055 0.05535904 -0.25065523 0.03632892 -0.15144187 0.14236054
-0.20904388 0.08544229 0.19785565 0.0002453311 -0.22672315 0.06278956 -0.43552777 0.0074480018
-0.35698885 -0.2855268 -0.18259302 -0.41288018 0.31273147 -0.1492194 0.27509513 -0.08899639
0.0574058 0.4073653 0.04404524 -0.14095193 0.45684898 -0.106804065 -0.09643002 -0.028185181
-0.34747335 -0.03470837 -0.09197177 0.407961 0.46835184 -0.26289326 -0.29082897 -0.0031941987
-0.07126053 -0.32065928 -0.1591165 0.000610614 -0.22213559 0.10940407 0.21426685 0.22769539
-0.06861318 -0.0725031 0.07786884 -0.19715138 -0.08595801 0.09669893 0.14187066 -0.017695274
-0.29767385 -0.2703124 -0.05918691 -0.08236127 -0.1514736 -0.061270498 -0.05913997 0.11648575
-0.06756531 -0.19346678 0.03468852 0.08478582 0.041616127 0.51028454 0.18816182 0.26196092
-0.02953579 -0.0059094136 -0.08386747 0.0020141513 0.110257395 0.16962965 0.3048845 -0.39671078
-0.060301535 -0.21365418 0.045984644 0.026242482 -0.04440299 0.058420908 -0.22511736 -0.30344656
0.08931477 0.011533611 -0.11398588 -0.29369766 0.3635867 0.16321582 -0.41378075 -0.04395445
-0.5019526 0.07382988 -0.053463105 0.3641331 -0.059613973 0.11650164 0.14415717 -0.1424076
0.009239658 -0.025051614 -0.25899586 -0.24806263 -0.26973638 0.21190734 0.049054325 0.20957942
-0.12786327 0.1239316 -0.13972402 -0.0027590243 -0.27982947 -0.12931424 0.13480577 0.019230096
-0.09325967 -0.21961707 -0.21011637 0.293064 0.13034582 -0.09479533 -0.12263572 0.056426615
-0.25558227 0.42750263 -0.051014125 -0.13792735 -0.07548824 0.012172237 -0.009834511 -0.17923139
-0.19281726 0.07744799 0.10632229 0.18924579 -0.19332154 0.1165798 0.14337151 0.04799959
-0.06825583 -0.053280186 0.05035577 0.20268737 0.03933362 0.2311308 0.28577137 0.5498904
-0.031499874 -0.0402243 -0.19111192 0.008104857 0.107387215 0.17364646 -0.120703116 0.33809468
0.10758512 -0.31271398 -0.1384704 -0.22645459 0.035543136 0.47199595 0.20009221 0.1274092
-0.06674977 0.07004257 -0.22003262 -0.06498045 0.13685025 0.17479348 0.05226226 0.37058374
-0.15232624 -0.32722223 0.25279856 -0.27373028 -0.28103787 -0.28357112 -0.03816856 -0.06598986
0.12305845 -0.27183646 0.3455457 -0.07885764 0.11056568 0.07434333 0.3470532 -0.1360054
-0.02470908 -0.03879893 0.05089195 0.06256898 0.020147344 -0.0070306985 -0.22285081 -0.06155864
-0.07346318 -0.14196299 -0.0038036383 0.016765365 0.048227306 0.043352146 -0.43491808 -0.036250547
0.23781635 0.14586753 0.058119487 0.13758014 -0.101946294 -0.07030149 -0.103670254 -0.18265033
-0.08142106 0.21763942 -0.13146736 -0.112438224 0.1722034 -0.48057437 -0.11041776 0.14065915
-0.18392627 0.02756662 -0.64954895 0.038093854 -0.043109693 0.0038193841 -0.062082756 -0.12615201

sequential_3_1/lstm_7_1/while/lstm_cell_1/add_1/ReadVariableOp f4 [32]
00000000: f0da fabc 99fc 2e3d e673 babd 94ba 2dbd
00000010: 05ca 20bd 05bf d53d 648f 7b3e 6c3e 613d
00000020: 9c44 6c3f b572 783f 800f 6a3f b991 623f
00000030: b78e 6b3f 8ff4 8a3f c004 9d3f 1352 893f
00000040: f238 debc 7b6a 183d 578c 0dbd 53c6 503d
00000050: dc69 123d b610 23bd e2b6 7dbd 482a 0e3d
00000060: ebb4 0bbd 8909 3e3d 00c5 c1bd 69c9 5ebd
00000070: 6a83 32bd 0324 9e3d a3ff 5f3e b4a6 3f3d
-0.030621976 0.042721365 -0.09104137 -0.042414263 -0.03925516 0.10436825 0.24566418 0.05499117
0.9229219 0.9705003 0.914299 0.88503605 0.9201464 1.0855883 1.2267075 1.0728172
-0.027126763 0.037210923 -0.034557667 0.050970387 0.035745487 -0.03981086 -0.06194199 0.03470829
-0.034108084 0.046395812 -0.09461403 -0.0543913 -0.043582357 0.077217124 0.21874861 0.04678984
